edgeAI/co_lstm_classifier_v1.tflite (tflite, 81868 bytes, 6 tensors)

sequential/lstm/Read_2/ReadVariableOp f4 [256]
00000000: fc54 c1be e15c debd cc16 623d 49aa c5be
00000010: 6a30 7bbe a746 e0be 4451 cdbe b712 07bf
00000020: 6ce6 7abe bad0 5dbf 200f 7cbe d673 d0bc
00000030: 23e9 f2be c799 b33e d202 16bf 3fbb a8be
00000040: b635 0ebe 824e 333d c531 a4bc c972 18bd
00000050: 7019 1cbf 946c 06bc 2f6b 06bf 1e88 d5be
00000060: ad30 823d 2ed9 973e 57ef 80be 27c4 53be
00000070: f49f c1be 1b60 dd3d c4b1 1dbf 1c6f 4e3e
00000080: 98b7 a73b f450 013e 919b 01be ed34 05bf
00000090: b975 46be 0da6 543e 8ce6 91bd d59e 303e
000000a0: 1a8f 70bd b965 0f3c 24cf 4d3d 0199 0c3e
000000b0: 3971 1abe 5d1b 9bbe 68e3 673e a99c 11be
000000c0: bbf9 36bf 312b d6be 0294 66be 86cb 823e
000000d0: e63d fa3d 749e 3dbf 70df df3d 321a 8ebe
000000e0: 1720 4fbf 52be b63e 4551 8abe f9a9 083e
000000f0: 064c cfbe 9c38 72be 684a 4bbe 49e7 25bf
00000100: 08e1 743f 2b36 8b3f 6ceb a73f 6276 813f
00000110: 5459 933f 1d6e 6d3f e3e0 873f 8068 4d3f
00000120: c9b0 923f 73a0 b13e b8a4 9e3f f9d3 ad3f
00000130: e803 573f d0b8 b03f be69 573f d936 703f
00000140: 23ba 963f 6967 9e3f f501 8c3f db38 b73f
00000150: 7ddb 393f 106d a53f 9b7e 8c3f 1d87 793f
00000160: 3edc ac3f 17fd d13f af33 8c3f 33e1 8a3f
00000170: 752b 5a3f 6a89 a43f ce2a 203f 0f07 a93f
00000180: 7c32 a03f 6b6e b53f 6c5d 9c3f d7f5 3e3f
00000190: 66b7 933f a324 a43f d95a ac3f bf5e a33f
000001a0: 4b8a 8f3f 50cc 883f dd99 933f f554 9c3f
000001b0: 5e4a a53f de69 443f 0240 ab3f d235 773f
000001c0: 6a24 073f 1f23 3f3f 9448 973f 94cd ce3f
000001d0: 4c17 b83f 4cb5 e53e 6058 a53f dca4 6c3f
000001e0: 11dd 113f 6fc7 d53f 01db 853f 8920 c63f
000001f0: 3443 553f 2ba9 883f 4f05 933f 84cc 463f
00000200: bedb 0c3e 6865 3b3c a760 063f f005 533e
00000210: b067 6cbe 0ec3 063d 6df7 923e 90b7 40be
00000220: ea69 31be c5c7 25be 86f3 38be 77f4 87be
00000230: 1915 d93c 7849 55be 87d2 3abe 5434 363d
00000240: f713 3e3e 86f6 823e dc22 03be 0734 913e
00000250: 5518 353d 3f45 983e 3384 f03d cf60 7ebe
00000260: e192 fbbc 466e 043e 11c7 573d 7c42 69bd
00000270: daf0 673e 0cfb 87be fcbe bbbd f3f4 73be
00000280: 0469 32be bec9 c9be ee43 723e 50d2 bdbd
00000290: 9bf8 553e 3b68 843e 8530 8cbd c7ad 8cbe
000002a0: b738 4fbe f5fd 90be aa24 91be a7a5 8a3e
000002b0: 66e3 373e c790 46bc 77c1 87be 2916 653d
000002c0: 86a5 e2bd bf21 2cbe 2241 be3d 7022 953e
000002d0: f593 b3be 6a5c 97bd c07d 33be 6579 1ebd
000002e0: 025f 9abd c361 523e ea84 2e3e afcf 933e
000002f0: 219f 07be 95f8 1abe 95b0 19be e256 82bd
00000300: e8c5 b9be f702 33be 1796 8a3c 6cf2 dfbe
00000310: 6717 5abe 4da4 77be 4c7c 8abe c1ba 0bbf
00000320: 40a3 6fbe 1ac4 13bf 5698 6dbe 726d 19bc
00000330: 722f cebe 2f61 dc3e 3cf6 82be 84eb b4be
00000340: 9fe9 78be 7cd6 ac3d a3be 9f3a c06a 9bbd
00000350: a727 1ebf dfc2 70bd f0d9 01bf a973 f6be
00000360: 6bad 743d 1d23 7b3e 7b62 87be 64ea 0abe
00000370: 60ce b5be 33ca 113e 01a7 d4be 045f 643e
00000380: c754 d7bb adde 863d ef5c 27be 0b1c d4be
00000390: ce14 09be ea09 683e 63e0 93bd 6d30 6e3e
000003a0: 7ed4 e1bb 636f 04bd 155d 5c3d 0748 ea3d
000003b0: e4bc 5ebe e443 b0be 917a 873e 3b4a 69be
000003c0: 164e 43bf d850 43be 7175 65be 891d 953e
000003d0: cbfe 073e 78f5 30bf f38e 0d3d e17c 24be
000003e0: 4045 24bf bf22 ff3e a193 6fbe 0541 aa3d
000003f0: 3be4 d7be 7c2f 5dbe a1ea 2fbe 1d01 03bf
-0.3776015 -0.10857559 0.055197522 -0.3860648 -0.24530187 -0.43803903 -0.40101063 -0.5276293
-0.24501961 -0.86646616 -0.24615145 -0.02544586 -0.47443494 0.3507826 -0.58598053 -0.32955357
-0.13887677 0.043776043 -0.020043263 -0.037218843 -0.60976315 -0.008204598 -0.525073 -0.41705412
0.063569404 0.29657882 -0.25182602 -0.20680295 -0.37817347 0.10809346 -0.61599374 0.20159572
0.0051183216 0.12628537 -0.12657 -0.52033883 -0.19380845 0.20766468 -0.071240515 0.1724809
-0.058730222 0.00875228 0.050246373 0.13730241 -0.15082254 -0.30294314 0.22645342 -0.14219917
-0.7147481 -0.41829827 -0.22517398 0.255459 0.122188374 -0.74069905 0.10931289 -0.2775436
-0.8090834 0.35692078 -0.2701513 0.1334609 -0.4048769 -0.23654407 -0.19852602 -0.6480604
0.9565587 1.0875906 1.311872 1.0114253 1.1511636 0.92746145 1.0615505 0.8023758
1.14602 0.34692726 1.2394018 1.3580314 0.83990335 1.38064 0.84145725 0.9383369
1.1775554 1.2375308 1.0938097 1.4314226 0.7260054 1.2923908 1.0976137 0.9747179
1.3504713 1.6405362 1.0953273 1.0849975 0.8522256 1.2854435 0.62565315 1.3205279
1.2515407 1.4174322 1.221601 0.7459387 1.1540344 1.2823681 1.3465225 1.2763289
1.1214079 1.0687351 1.153133 1.2213427 1.291332 0.7672404 1.3378909 0.965665
0.5278994 0.74662966 1.1819024 1.6156487 1.438211 0.4486488 1.2917595 0.92439055
0.56977946 1.6701487 1.045746 1.5478679 0.8330567 1.0676626 1.1485995 0.77655816
0.137557 0.011437751 0.5249123 0.20607734 -0.23086429 0.032900862 0.28704396 -0.18820024
-0.1732556 -0.16189487 -0.18061647 -0.265537 0.026499318 -0.20828807 -0.18244372 0.044483498
0.18562303 0.25578707 -0.12806267 0.28360006 0.044212658 0.2974033 0.11743965 -0.24841617
-0.030709686 0.12932691 0.05268008 -0.05694817 0.22650471 -0.2655872 -0.09167287 -0.2382391
-0.17422873 -0.3941173 0.23658726 -0.092686296 0.20895617 0.25860772 -0.06845192 -0.27476332
-0.20236479 -0.28318754 -0.28348285 0.27079508 0.1795784 -0.012119479 -0.2651479 0.055929337
-0.11066727 -0.16809748 0.09289767 0.29127836 -0.3507382 -0.073906735 -0.17528439 -0.03868999
-0.075376526 0.20545106 0.1704289 0.28869388 -0.13244297 -0.15133889 -0.15008767 -0.06364228
-0.36283803 -0.174816 0.016917272 -0.4373964 -0.2129799 -0.2418377 -0.27047956 -0.5458184
-0.23402119 -0.577211 -0.23202643 -0.009364473 -0.40270573 0.43042895 -0.25578487 -0.35335934
-0.2430787 0.08439347 0.0012187551 -0.0758872 -0.61779255 -0.058779594 -0.5072317 -0.48135117
0.059735697 0.24525113 -0.26442322 -0.13565975 -0.35509014 0.14237289 -0.41533664 0.2230187
-0.0065713855 0.06585441 -0.16344045 -0.41427645 -0.13386843 0.22660032 -0.07220533 0.2326066
-0.006891786 -0.03233279 0.053799707 0.114395194 -0.21751744 -0.34426796 0.26460698 -0.22782223
-0.76291025 -0.19073808 -0.22408082 0.29124096 0.1328079 -0.69124556 0.034560155 -0.16063263
-0.6416817 0.49831197 -0.2339616 0.08313183 -0.42166314 -0.21600145 -0.17179348 -0.51173574

sequential/dense/BiasAdd/ReadVariableOp f4 [3]
00000000: 194d e13d 670c 24be 2958 f9bb
0.11001033 -0.16020356 -0.0076093865

sequential/dense/MatMul f4 [3, 64]
00000000: 064f 4d3e ecdd 18bf ab80 17be 2122 fcbe
00000010: 1ce3 663e a45b 17bf 598e 03bf b76e aa3e
00000020: 9d79 41be 2cc3 043f bc67 1fbe cbfd b2bd
00000030: 7ab6 19be c73e 9bbe 5d79 3cbf 0c01 1b3f
00000040: f624 123f 67c3 68be 020f 2abf 02b9 443f
00000050: 8fbd 973e 5aa3 783e 9c85 ecbe cb78 cf3d
00000060: 0360 48be e379 e8bd b5a1 c5be c929 033f
00000070: 8076 20bc bcf8 3dbf dad6 c03e 4bd9 15be
00000080: d67c 18bf 41df 4dbd e18c 51bb f387 bd3e
00000090: 73aa 253d db49 4dbd c0dd fdbe 84e7 fbbd
000000a0: 29ea c7be 27a7 42be b4d9 a63e 8377 ccbe
000000b0: 3111 4ebf 0e58 c03e 48c6 9b3e c64f 5dbe
000000c0: af19 383f 0be0 33bf 43be 05bf 0ccd a33e
000000d0: ce72 26bf 5731 183d 1b75 cc3c ee9d 413e
000000e0: 7c07 303f 83ab d63e 09f4 073f 946e 773e
000000f0: 07de 9ebe 22bf fabe 3dc6 433e 8bcf 26bf
00000100: 0bf9 bbbe e152 2e3e 3a70 9fbf 54d0 963d
00000110: ce7c 943e b6b0 8cbd 2cc1 083f 9b08 5a3d
00000120: d3d3 00be adb4 d5be 4abe d93e d8f5 163f
00000130: 209c 86bc 4b77 cf3d dce0 ea3e db59 5abf
00000140: cfe0 8ebe ea6f c0be fc0a 13bf 3b7e c6be
00000150: ecca 67be 2502 333e 53f1 533f 7969 cc3e
00000160: 95f7 303e 59db d63d 67c4 2e3d b02c 60be
00000170: 8fcc 6bbd 56d4 753e e250 eebe 8563 c93e
00000180: 3c3d 2c3e 7676 8a3f 95ac d73d b935 10bf
00000190: d000 81be b968 08bf 2f1c 2b3f dfd9 ce3e
000001a0: f275 ca3e 3ff7 c9bd 3a39 f13d 2927 d1be
000001b0: 4e02 64be 27ef 52be 7ea9 88be ba47 513f
000001c0: 39c1 e3be b77f 74bd 40d4 f5bc b8b2 dfbe
000001d0: de56 893f 5c69 263e cba8 e03e e193 2b3e
000001e0: 6f4c 8bbe 1206 0abf 85f0 f3be e524 75bf
000001f0: 3b47 ca3f 6ae9 44be 2915 a8be 152f cb3e
00000200: 812e 0e3e b665 4d3f e8b6 f63e e82c 6f3f
00000210: ae82 95bf aadd 1e3f 36ef 383f b0d1 25bf
00000220: cd4c 64bf 2a8b a53e 54a4 c83d 9888 e5bd
00000230: 36a5 4dbf fbee e6bd 290b 2a3f 2573 51be
00000240: 2387 02bf ffab 413f 4722 da3e 808f 90be
00000250: 8078 02bf 90c0 023e 221b 82be 5408 48bf
00000260: d294 263e 3069 6f3f 4d99 cc3e d04f 21be
00000270: 37e6 d53e c525 f43e 6a27 8e3e 5903 313e
00000280: 50cf 2a3f ef2e babe c06c 373f 3c59 663f
00000290: ed0c 713f fed4 0c3f 7700 c53e 80cb 15bf
000002a0: 03b8 aabe 0d3a ecbd 7548 d8be 0c19 843e
000002b0: 0f92 573f 1104 cfbe 3919 3fbf f452 05bf
000002c0: 4b1b 173e c732 1a3f f58d a83e d3e1 983e
000002d0: 55eb 31bd 449a 37c0 da76 1bbe 4f88 ffbe
000002e0: d4f4 0cbf a223 283e c341 893e 604a 0a3e
000002f0: 1d5e a1be e13b bf3d c7fd 95bd 115a 173f
0.20049676 -0.59713626 -0.14795177 -0.49244788 0.22547573 -0.5912421 -0.5138908 0.33287594
-0.18894048 0.5186031 -0.15566915 -0.087398134 -0.15011016 -0.30321333 -0.73622686 0.6054847
0.5708765 -0.2273079 -0.6642915 0.768448 0.2963681 0.24281064 -0.46195686 0.10130461
-0.19567876 -0.11351373 -0.38599935 0.51235634 -0.009793878 -0.74207664 0.3766392 -0.14633672
-0.59565485 -0.05026174 -0.003197484 0.37017784 0.040445756 -0.050119262 -0.49583244 -0.123000175
-0.39045838 -0.19009076 0.3258797 -0.3993493 -0.8049498 0.3756718 0.30424714 -0.21612462
0.7191419 -0.7026374 -0.5224344 0.31992376 -0.6501893 0.03715643 0.024958184 0.18907902
0.6876142 0.41927728 0.53106743 0.24163276 -0.31028768 -0.48973948 0.1911859 -0.65160435
-0.36713442 0.17023803 -1.2456124 0.07363954 0.29001468 -0.068696424 0.53419757 0.053230863
-0.12580805 -0.41739407 0.42527992 0.5896888 -0.016431868 0.10130175 0.4587468 -0.8529336
-0.2790589 -0.37585384 -0.57438636 -0.3876818 -0.22636002 0.17481287 0.82790107 0.3992422
0.17281945 0.10491056 0.042667773 -0.21892047 -0.05756813 0.24006781 -0.46546084 0.3933374
0.16820234 1.0817401 0.10530964 -0.56331974 -0.25195932 -0.53284794 0.6683988 0.40400597
0.3954311 -0.098616116 0.11778493 -0.4085019 -0.22266504 -0.20599042 -0.26691812 0.8175007
-0.44483355 -0.05969211 -0.030008435 -0.4369104 1.0729635 0.16251129 0.4387878 0.1675563
-0.27206752 -0.5391551 -0.4764444 -0.9575942 1.5802988 -0.19229665 -0.32828644 0.39684358
0.13884927 0.80233324 0.4818642 0.93427896 -1.1680505 0.6205698 0.72240007 -0.6477308
-0.8917969 0.32332736 0.09796968 -0.11207694 -0.80330217 -0.11276051 0.6642328 -0.2045408
-0.5098745 0.7565307 0.42604277 -0.28234482 -0.5096512 0.1276877 -0.25411326 -0.7813771
0.16267708 0.9351988 0.3996071 -0.15753102 0.41777202 0.47685066 0.27764446 0.17286433
0.66722584 -0.36363932 0.71650314 0.8997991 0.9416035 0.550125 0.38476917 -0.5851364
-0.33343515 -0.1153451 -0.4224278 0.2580036 0.8420724 -0.4043279 -0.7464786 -0.520797
0.14756505 0.6023373 0.32920805 0.2985979 -0.04343732 -2.8687906 -0.15182057 -0.49908683
-0.5506108 0.16419843 0.26807985 0.13504934 -0.31517115 0.09337593 -0.07323795 0.59121805

sequential/lstm/Read_2/ReadVariableOp1 f4 [256]
00000000: fc54 c1be e15c debd cc16 623d 49aa c5be
00000010: 6a30 7bbe a746 e0be 4451 cdbe b712 07bf
00000020: 6ce6 7abe bad0 5dbf 200f 7cbe d673 d0bc
00000030: 23e9 f2be c799 b33e d202 16bf 3fbb a8be
00000040: b635 0ebe 824e 333d c531 a4bc c972 18bd
00000050: 7019 1cbf 946c 06bc 2f6b 06bf 1e88 d5be
00000060: ad30 823d 2ed9 973e 57ef 80be 27c4 53be
00000070: f49f c1be 1b60 dd3d c4b1 1dbf 1c6f 4e3e
00000080: 98b7 a73b f450 013e 919b 01be ed34 05bf
00000090: b975 46be 0da6 543e 8ce6 91bd d59e 303e
000000a0: 1a8f 70bd b965 0f3c 24cf 4d3d 0199 0c3e
000000b0: 3971 1abe 5d1b 9bbe 68e3 673e a99c 11be
000000c0: bbf9 36bf 312b d6be 0294 66be 86cb 823e
000000d0: e63d fa3d 749e 3dbf 70df df3d 321a 8ebe
000000e0: 1720 4fbf 52be b63e 4551 8abe f9a9 083e
000000f0: 064c cfbe 9c38 72be 684a 4bbe 49e7 25bf
00000100: 08e1 743f 2b36 8b3f 6ceb a73f 6276 813f
00000110: 5459 933f 1d6e 6d3f e3e0 873f 8068 4d3f
00000120: c9b0 923f 73a0 b13e b8a4 9e3f f9d3 ad3f
00000130: e803 573f d0b8 b03f be69 573f d936 703f
00000140: 23ba 963f 6967 9e3f f501 8c3f db38 b73f
00000150: 7ddb 393f 106d a53f 9b7e 8c3f 1d87 793f
00000160: 3edc ac3f 17fd d13f af33 8c3f 33e1 8a3f
00000170: 752b 5a3f 6a89 a43f ce2a 203f 0f07 a93f
00000180: 7c32 a03f 6b6e b53f 6c5d 9c3f d7f5 3e3f
00000190: 66b7 933f a324 a43f d95a ac3f bf5e a33f
000001a0: 4b8a 8f3f 50cc 883f dd99 933f f554 9c3f
000001b0: 5e4a a53f de69 443f 0240 ab3f d235 773f
000001c0: 6a24 073f 1f23 3f3f 9448 973f 94cd ce3f
000001d0: 4c17 b83f 4cb5 e53e 6058 a53f dca4 6c3f
000001e0: 11dd 113f 6fc7 d53f 01db 853f 8920 c63f
000001f0: 3443 553f 2ba9 883f 4f05 933f 84cc 463f
00000200: bedb 0c3e 6865 3b3c a760 063f f005 533e
00000210: b067 6cbe 0ec3 063d 6df7 923e 90b7 40be
00000220: ea69 31be c5c7 25be 86f3 38be 77f4 87be
00000230: 1915 d93c 7849 55be 87d2 3abe 5434 363d
00000240: f713 3e3e 86f6 823e dc22 03be 0734 913e
00000250: 5518 353d 3f45 983e 3384 f03d cf60 7ebe
00000260: e192 fbbc 466e 043e 11c7 573d 7c42 69bd
00000270: daf0 673e 0cfb 87be fcbe bbbd f3f4 73be
00000280: 0469 32be bec9 c9be ee43 723e 50d2 bdbd
00000290: 9bf8 553e 3b68 843e 8530 8cbd c7ad 8cbe
000002a0: b738 4fbe f5fd 90be aa24 91be a7a5 8a3e
000002b0: 66e3 373e c790 46bc 77c1 87be 2916 653d
000002c0: 86a5 e2bd bf21 2cbe 2241 be3d 7022 953e
000002d0: f593 b3be 6a5c 97bd c07d 33be 6579 1ebd
000002e0: 025f 9abd c361 523e ea84 2e3e afcf 933e
000002f0: 219f 07be 95f8 1abe 95b0 19be e256 82bd
00000300: e8c5 b9be f702 33be 1796 8a3c 6cf2 dfbe
00000310: 6717 5abe 4da4 77be 4c7c 8abe c1ba 0bbf
00000320: 40a3 6fbe 1ac4 13bf 5698 6dbe 726d 19bc
00000330: 722f cebe 2f61 dc3e 3cf6 82be 84eb b4be
00000340: 9fe9 78be 7cd6 ac3d a3be 9f3a c06a 9bbd
00000350: a727 1ebf dfc2 70bd f0d9 01bf a973 f6be
00000360: 6bad 743d 1d23 7b3e 7b62 87be 64ea 0abe
00000370: 60ce b5be 33ca 113e 01a7 d4be 045f 643e
00000380: c754 d7bb adde 863d ef5c 27be 0b1c d4be
00000390: ce14 09be ea09 683e 63e0 93bd 6d30 6e3e
000003a0: 7ed4 e1bb 636f 04bd 155d 5c3d 0748 ea3d
000003b0: e4bc 5ebe e443 b0be 917a 873e 3b4a 69be
000003c0: 164e 43bf d850 43be 7175 65be 891d 953e
000003d0: cbfe 073e 78f5 30bf f38e 0d3d e17c 24be
000003e0: 4045 24bf bf22 ff3e a193 6fbe 0541 aa3d
000003f0: 3be4 d7be 7c2f 5dbe a1ea 2fbe 1d01 03bf
-0.3776015 -0.10857559 0.055197522 -0.3860648 -0.24530187 -0.43803903 -0.40101063 -0.5276293
-0.24501961 -0.86646616 -0.24615145 -0.02544586 -0.47443494 0.3507826 -0.58598053 -0.32955357
-0.13887677 0.043776043 -0.020043263 -0.037218843 -0.60976315 -0.008204598 -0.525073 -0.41705412
0.063569404 0.29657882 -0.25182602 -0.20680295 -0.37817347 0.10809346 -0.61599374 0.20159572
0.0051183216 0.12628537 -0.12657 -0.52033883 -0.19380845 0.20766468 -0.071240515 0.1724809
-0.058730222 0.00875228 0.050246373 0.13730241 -0.15082254 -0.30294314 0.22645342 -0.14219917
-0.7147481 -0.41829827 -0.22517398 0.255459 0.122188374 -0.74069905 0.10931289 -0.2775436
-0.8090834 0.35692078 -0.2701513 0.1334609 -0.4048769 -0.23654407 -0.19852602 -0.6480604
0.9565587 1.0875906 1.311872 1.0114253 1.1511636 0.92746145 1.0615505 0.8023758
1.14602 0.34692726 1.2394018 1.3580314 0.83990335 1.38064 0.84145725 0.9383369
1.1775554 1.2375308 1.0938097 1.4314226 0.7260054 1.2923908 1.0976137 0.9747179
1.3504713 1.6405362 1.0953273 1.0849975 0.8522256 1.2854435 0.62565315 1.3205279
1.2515407 1.4174322 1.221601 0.7459387 1.1540344 1.2823681 1.3465225 1.2763289
1.1214079 1.0687351 1.153133 1.2213427 1.291332 0.7672404 1.3378909 0.965665
0.5278994 0.74662966 1.1819024 1.6156487 1.438211 0.4486488 1.2917595 0.92439055
0.56977946 1.6701487 1.045746 1.5478679 0.8330567 1.0676626 1.1485995 0.77655816
0.137557 0.011437751 0.5249123 0.20607734 -0.23086429 0.032900862 0.28704396 -0.18820024
-0.1732556 -0.16189487 -0.18061647 -0.265537 0.026499318 -0.20828807 -0.18244372 0.044483498
0.18562303 0.25578707 -0.12806267 0.28360006 0.044212658 0.2974033 0.11743965 -0.24841617
-0.030709686 0.12932691 0.05268008 -0.05694817 0.22650471 -0.2655872 -0.09167287 -0.2382391
-0.17422873 -0.3941173 0.23658726 -0.092686296 0.20895617 0.25860772 -0.06845192 -0.27476332
-0.20236479 -0.28318754 -0.28348285 0.27079508 0.1795784 -0.012119479 -0.2651479 0.055929337
-0.11066727 -0.16809748 0.09289767 0.29127836 -0.3507382 -0.073906735 -0.17528439 -0.03868999
-0.075376526 0.20545106 0.1704289 0.28869388 -0.13244297 -0.15133889 -0.15008767 -0.06364228
-0.36283803 -0.174816 0.016917272 -0.4373964 -0.2129799 -0.2418377 -0.27047956 -0.5458184
-0.23402119 -0.577211 -0.23202643 -0.009364473 -0.40270573 0.43042895 -0.25578487 -0.35335934
-0.2430787 0.08439347 0.0012187551 -0.0758872 -0.61779255 -0.058779594 -0.5072317 -0.48135117
0.059735697 0.24525113 -0.26442322 -0.13565975 -0.35509014 0.14237289 -0.41533664 0.2230187
-0.0065713855 0.06585441 -0.16344045 -0.41427645 -0.13386843 0.22660032 -0.07220533 0.2326066
-0.006891786 -0.03233279 0.053799707 0.114395194 -0.21751744 -0.34426796 0.26460698 -0.22782223
-0.76291025 -0.19073808 -0.22408082 0.29124096 0.1328079 -0.69124556 0.034560155 -0.16063263
-0.6416817 0.49831197 -0.2339616 0.08313183 -0.42166314 -0.21600145 -0.17179348 -0.51173574

while/MatMul_11 f4 [256, 64]
00000000: c6e1 45be 266b 823b f4bd b93d 8786 883d
00000010: d279 a83c 6213 883f 34ad 203e 556a b3be
00000020: cd42 493e dd66 293e c60a 8bbe 2503 0abe
00000030: c9bd 36be 3d0d b1bd fc3e 693e 80dc b8be
00000040: 83dc 453d 253c 80be c4ff f1be 5fc5 8abe
00000050: 68ee 35be dd72 bfbd 63d9 9dbe 0057 68bd
00000060: a4b4 b63e 6cd0 d13e be22 05be e8a3 203f
00000070: 50fb f8bc fe46 14be 28ee 8fbe 0701 193e
00000080: a223 68be 3e4e f3bd d4de 87be 1886 d53e
00000090: 8a3a 61be b4ac 1cbc d241 1abf fe2a 0e3e
000000a0: e2ce 7abd e99a 19bd e54f 7f3e 30e2 4dbe
000000b0: 79f9 cabe dabf b1be d3a9 103e 9ad7 3fbe
000000c0: a94d c3be 173d 443f 9ab3 a1be 7806 1f3f
000000d0: ef9c 23be 9a6d 753e 0f48 3b3e 44e5 25bf
000000e0: 2507 ca3e 743a 923d 588e 383e 0946 403e
000000f0: 5e21 f2bc 6023 b13e d561 8c3e 81db 12be
00000100: 507b a5be 0e93 353d c6fa 493e 80e2 973d
00000110: 0230 debe a1bb 50be d9ce d83d afff dd3e
00000120: 2743 5ebe 2cad 803e f169 16bf d308 53be
00000130: 29d2 413f c82f 9b3e a084 52be d5e8 aebd
00000140: e2e6 3b3d ee16 15be c993 1a3f 3a86 793e
00000150: a107 283e 9226 4b3a ebec 20bf 9d00 0bbe
00000160: 2319 0f3f e01d fb3c e484 d9be 99f7 513f
00000170: abe9 a8ba 6cab 2cbe 0a65 bfbe 4a17 5a3e
00000180: 0b6e 743e bf1c c9be 3b3b 4fbe 66e1 c3bd
00000190: 6412 4c3d 6c91 8b3d f4e5 71bf ea63 7abe
000001a0: 0d90 e13d 5554 ef3e 6242 7a3e 2dc0 a3be
000001b0: 9fc6 943e f758 603e 4839 103e f864 a63d
000001c0: 8b3d e1bb 892f 20bf d4ae d6be a7a2 153f
000001d0: 5652 a3be cb6d 37bc b299 47be 7734 ff3c
000001e0: 7119 923e 3b92 883e 77c9 1c3f e6b0 043f
000001f0: ea44 d7be 1e52 45be 1030 a23d 352d 90be
00000200: 7a43 37bd d349 5f3e 9abd 4c3e a51e bc3e
00000210: b84e 2b3d 08b0 813e f7a9 233d aec2 57be
00000220: b4cf 043d 0437 b8be c760 453e 8e5e 3fbb
00000230: d332 8bbe ff0e b4bd 6a18 dc3d 13e1 82be
00000240: be5e 3b3d 6c65 1c3e 01e0 843d 71fe bfbc
00000250: fada 0dbd 6d69 c63e 1009 543d 55bb 5bbe
00000260: 2561 fa3e 194e b9bd 9b84 ebbc c404 b5ba
00000270: 367f 213e aae5 993c a158 e3be 419a b2be
00000280: 8cb5 a13c cc60 6abe 1253 2e3d d350 153e
00000290: e2a1 0b3e c332 803e 04aa af3d 9c0c ecbe
000002a0: 339a 9639 a87f 71be 9ced 75be 9c12 a13e
000002b0: 1bf5 4abb 4422 c4bd ad38 c5bc cf36 683d
000002c0: 02a0 f93d 7588 813e 8ad4 643c 81ce 9b3e
000002d0: 8c3c 02be 8bed 7bbd 162a 1e3e 14f0 c7bd
000002e0: dbb0 49be a8e3 0bbc 95e9 7c3c f8b6 193e
000002f0: 6ce8 803d d382 823d 705a 063d 24ca cf3d
00000300: f4c9 38bb d80f 32be 36b8 55bd 8836 6abd
00000310: 317b d33e cf3c c5bc e494 42bf a231 473e
00000320: f942 fe3e b8b1 1ebe 0475 e03d bc19 d23e
00000330: 7902 3f3e 613a 0f3d 7da7 0e3e 154b 3fbf
00000340: 98c5 b13e ea4b cfbe 226e 373e 38a7 51be
00000350: c761 bfbc 8878 fcbe f8ad 293e d294 743e
00000360: 59da 75bb dbf4 91be 4eb7 0abe c1cc 83bd
00000370: 9aaf e3be 15a4 b63d e5eb a2be 8a8e d53e
00000380: 6bf7 96be a24a 9f3d 3da1 15bf b3bd 003f
00000390: 05bd 74be 643b a5be ec7d dabd 5db8 cf3e
000003a0: fdc7 40bd 651f 503d 147c 793e 1c27 e0be
000003b0: 1e7d 4abe 27a5 9bbd 86d0 dd3e a171 06bd
000003c0: 8777 1cbe 1d61 b23e 1555 d33d ba32 c13b
000003d0: af29 0abe 1cb5 de3e d658 82be ef0e 003f
000003e0: 53b8 3b3e e1b9 d13d a9fe f9be d2cf f7bd
000003f0: 179a 423e 38a1 c43f 1299 743e 5412 04be
-0.19324407 0.0039800582 0.09069434 0.06666284 0.020565901 1.0630915 0.15691072 -0.35042062
0.19654389 0.16543145 -0.27156657 -0.13477762 -0.17845835 -0.08645103 0.22777933 -0.36105728
0.048306 -0.25045887 -0.47265446 -0.27103707 -0.17766726 -0.0934808 -0.30829915 -0.056723595
0.35684693 0.40979326 -0.13001534 0.627501 -0.030393273 -0.14480206 -0.28111386 0.14941798
-0.22669843 -0.11880158 -0.26537192 0.41703868 -0.21994987 -0.00956266 -0.60256684 0.13883588
-0.061232455 -0.03750125 0.24932821 -0.20105815 -0.39643458 -0.34716684 0.14127283 -0.18734589
-0.38145187 0.76655716 -0.31582338 0.62119246 -0.15977834 0.23967591 0.18289207 -0.64802957
0.39458576 0.07140055 0.1802305 0.18776716 -0.029556926 0.345973 0.2741839 -0.14341547
-0.32320642 0.044329695 0.19724569 0.07416248 -0.43396002 -0.20384075 0.10586328 0.43359134
-0.21705304 0.2513212 -0.58755404 -0.20608835 0.75711304 0.30309892 -0.20558405 -0.08540503
0.045874484 -0.14559528 0.6038175 0.2436761 0.1640916 0.0007749583 -0.6286151 -0.13574453
0.5589773 0.030653894 -0.424842 0.8201843 -0.0012887021 -0.16862267 -0.37381774 0.21297947
0.23870103 -0.39279744 -0.20237438 -0.09564476 0.049822226 0.068148464 -0.94491506 -0.24452177
0.11013804 0.46744028 0.24439386 -0.31982556 0.29057786 0.21908937 0.14084351 0.08124727
-0.0068737916 -0.6257253 -0.41930258 0.5845131 -0.31898755 -0.01119561 -0.19492224 0.031152947
0.28535035 0.26674065 0.6124491 0.51832426 -0.42044765 -0.19269606 0.079193234 -0.2815949
-0.044742085 0.21805505 0.19994202 0.3674213 0.04182312 0.25329614 0.039957013 -0.21070358
0.032424644 -0.35979474 0.19275199 -0.0029200646 -0.27187213 -0.08791923 0.10746844 -0.25562343
0.04574465 0.15273064 0.06488038 -0.023436757 -0.03463266 0.38752308 0.051766455 -0.2145818
0.4890224 -0.09048099 -0.028749755 -0.0013810624 0.15771183 0.01878627 -0.44403556 -0.3488331
0.019739889 -0.22888488 0.04255969 0.14581613 0.13635972 0.25038728 0.0857735 -0.4610337
0.00028725117 -0.23583853 -0.24016422 0.3145951 -0.0030968848 -0.09576848 -0.024074877 0.056692895
0.12188722 0.2529942 0.013966689 0.30430987 -0.1271841 -0.061505836 0.15445742 -0.09762588
-0.19696371 -0.008538164 0.01543655 0.15011203 0.06294331 0.06372609 0.03280109 0.10145977
-0.0028196545 -0.17388856 -0.05217763 -0.05718091 0.41304925 -0.024076847 -0.7600844 0.19452527
0.4966047 -0.15497482 0.10959819 0.4103526 0.18653287 0.034967784 0.13931079 -0.7472394
0.34721065 -0.40487605 0.17913106 -0.20473945 -0.023362054 -0.49310708 0.1657027 0.23884895
-0.0037514179 -0.28507122 -0.13546488 -0.06435538 -0.4446991 0.08918015 -0.31820598 0.4171031
-0.2948564 0.07777907 -0.58449155 0.5028946 -0.2390023 -0.32271874 -0.10668549 0.40570346
-0.047065724 0.05081119 0.24363738 -0.43779838 -0.19774291 -0.0759986 0.43323153 -0.03282321
-0.15279971 0.34839717 0.103189625 0.0058959397 -0.13492464 0.4349755 -0.254584 0.50022787
0.18332033 0.10240532 -0.48827103 -0.121001855 0.19004093 1.53617 0.23886517 -0.12897617

while/MatMul f4 [256, 4]
00000000: 2ba4 a2be f47f 8bbe f804 d4be 3542 afbe
00000010: 5bae 73bd f79e a63e 3df7 0abe 3f07 aabe
00000020: 6775 94be 2b68 61be 6df2 bdbd b8f9 d1be
00000030: dd2a 8bbe b1d6 983d a157 bcbd 2c2d cfbe
00000040: 921f 90be da28 19bf d5c4 7dbe 6c11 ccbe
00000050: 5ed3 acbe 3d84 bfbe 7471 183e d06a b4be
00000060: 5bb8 d5be 5cf5 7fbe 848e 6ebe 8aaa 7bbe
00000070: 9f44 21bf 2fd5 b4be 405c ce3c f1d8 25bf
00000080: c54f 8ebe 2474 3bbf 844e e6bd 4e85 8cbd
00000090: 5e7e 37bf a7d3 44bf 0e11 b8be 86ad 18bf
000000a0: 390a c9be 2b43 e5be dcc6 a63d 6837 1bbf
000000b0: 215a 9dbe 7db0 42be 2638 c7bd 47f6 45be
000000c0: f0a4 c2be 2526 39bf 9d3e 32be c8e7 83be
000000d0: 8aa0 173f 030f c13e bbbb 823d 5d6d 3c3f
000000e0: 8270 47bf 0361 f6be 58b7 97be 1483 85be
000000f0: 96ea 17bf ff17 50bf ca47 c6bc 5542 09bf
00000100: 98cc bfbe d662 d9be 2116 e4bd 5008 46be
00000110: 8865 013f c4ce ca3e f44a a4bd eeb9 733e
00000120: dda2 853e 0f41 ab3e 28a1 913d 8f48 4abe
00000130: 537e 5dbe 36cb a2bd bed6 8abd 62f3 ec3d
00000140: 4a40 f4be c7f9 5bbc 144b 333c 3887 92be
00000150: c34c 2a3e 881b 873e 24e3 dabd 9558 263d
00000160: 06fa 1bbf 8ecb 51be 42dd 4ebe 96de 4cbf
00000170: 3274 4dbe a805 053c a305 bf3d 421c 99be
00000180: 54b4 93bd d4a3 6cbe 97a0 bc3a 9341 8fbf
00000190: 6ad5 963e db57 2cbe f376 ac3d 7a44 363c
000001a0: 1765 0c3d 9a81 b2be a1a8 8dbd f812 ce3e
000001b0: 4c5e a1bd 92b0 46be f649 1a3e fb2b 243f
000001c0: 1b67 26be d7f4 b8be 7c4c 0fbe 349b 9e3b
000001d0: d5a2 e83d 4d8f 12be 1fb2 3fbd ab8f ad3e
000001e0: 4722 a9be 873a 09bf 2b1e 203c 71aa 18be
000001f0: cda2 323f 7bcc 963e 4fb2 983d 7dac b63e
00000200: 63ef 82bd a128 a03e d7aa 8d3d 0a75 143e
00000210: d4ae 5bbe b8ba fdbd 4628 21be 1325 89be
00000220: bf79 babb f5bf e43d 5fdf 69bd 5f89 03be
00000230: 17d5 7ebe b20e 04bf 87f2 bcbe 6572 13bf
00000240: 8fab 84bd 7788 9ebe 5f60 69bd 9a34 65bd
00000250: 8d68 bf3e fdf6 843e a61d 723d ca18 083e
00000260: 1788 85be 3f56 4b3d ece1 cd3d 6e4a 72be
00000270: 0d9d 023f 7487 6d3e 39b1 fc3c 9c1d 843e
00000280: 1716 18bf d136 66be c86a 82bd 0ee0 81be
00000290: 5dc1 973e 35f9 b23e ffa4 cb3d e9fa 1fbe
000002a0: 1a1c 9d3e aafa bf3e b68b 033e ac73 b43d
000002b0: 1931 213f 38ff 8e3e 3b08 1d3e 56c2 523e
000002c0: 1152 afbd 7973 8d3c d2c8 44be d970 2cbd
000002d0: 4db8 b9be 403d b0bf 25ae 183e 6219 f7bd
000002e0: 3e87 0d3f 747b 923e 2a45 2e3e 0399 053f
000002f0: fb1b 07be c59a 573b 92a0 28be e466 2a3c
00000300: ad28 05bf 30f6 9d3c 77af 9dbd 21f9 703b
00000310: ca49 d7be 98b2 eebd a44d 38be 4b82 a83d
00000320: f288 24be d0de 0a3e f049 83bd e0ff 10bf
00000330: 9335 e8bd c2a8 aebd ffe8 4b3c 7b52 173f
00000340: a3d8 bcbe 7b9f f5bd cdf0 1d3d 1704 97be
00000350: 273e 00bf 530a 70bf 27ab d6be 6266 d4be
00000360: 7190 083d 6471 ba3c 394d 2cbc b9bc 1b3e
00000370: 7e83 fcbe dcdb 85bf 509e 3abe 8b56 f33d
00000380: dc06 0fbf b28e 42bf 71e7 56be 2001 92be
00000390: 912a c93e 1700 2c3e 8c4b c73c 9688 193e
000003a0: f02b 15bf 53a4 fabe c01b 02be 8bd6 12bf
000003b0: 52e9 9ebe 9be7 a9be e681 1bbe ef68 07bd
000003c0: 6afc 3dbf 8175 e1be f689 8dbe 2aab 1cbf
000003d0: d74b 09bf 8296 d1be 17e0 933d f659 86bf
000003e0: db9c 8abe 2d06 0dbf c6e5 3abe 3f58 d13d
000003f0: 98d4 25bf 83ca 35bf 53b7 3fbe 090a fdbe
-0.31765875 -0.27246058 -0.4141004 -0.342302 -0.05949245 0.32543156 -0.13570876 -0.33208653
-0.2899582 -0.22012393 -0.09274755 -0.41010833 -0.2718114 0.07462824 -0.091964014 -0.4046415
-0.28149086 -0.5982796 -0.24782117 -0.39857042 -0.3375501 -0.37405577 0.14887029 -0.3523774
-0.41742215 -0.24995941 -0.23296553 -0.24576774 -0.6299533 -0.35318896 0.025190473 -0.6478415
-0.27795234 -0.7322409 -0.112454444 -0.06861363 -0.71677196 -0.76885456 -0.35950512 -0.59639776
-0.39265612 -0.44777808 0.08143398 -0.6063142 -0.30732825 -0.19012637 -0.09727506 -0.19332229
-0.38016462 -0.7232383 -0.17406698 -0.25762773 0.5922934 0.37706766 0.06383463 0.73604375
-0.7790605 -0.4812089 -0.29632068 -0.26076567 -0.59342325 -0.81286615 -0.024204154 -0.5361684
-0.3746078 -0.42458218 -0.11137033 -0.19339108 0.5054555 0.39610875 -0.08022109 0.23801395
0.26100817 0.33448073 0.07110816 -0.19754241 -0.2163022 -0.07948916 -0.0677924 0.11569859
-0.477053 -0.013426251 0.010943193 -0.2861879 0.16630845 0.26388192 -0.10687855 0.040611822
-0.6092838 -0.20487806 -0.2020159 -0.8002714 -0.20063856 0.008119024 0.09327247 -0.29904372
-0.07212129 -0.2310937 0.0014391121 -1.1191887 0.29459697 -0.16830389 0.08421125 0.0111247245
0.034276094 -0.34864503 -0.06916929 0.40248847 -0.07879314 -0.19403294 0.15067276 0.6412961
-0.16250269 -0.36124298 -0.1399402 0.004840279 0.11359183 -0.14312477 -0.04680073 0.33898672
-0.33033964 -0.5360493 0.009772818 -0.14908768 0.69779664 0.2945288 0.07455885 0.35678473
-0.06393316 0.31280997 0.06917351 0.14497772 -0.2145341 -0.123891294 -0.1573802 -0.26786098
-0.005690783 0.111694254 -0.05709779 -0.12845372 -0.24885975 -0.51584923 -0.36903784 -0.5759643
-0.06478035 -0.3096349 -0.056976672 -0.055958368 0.37384453 0.25969687 0.059110306 0.13290706
-0.2608039 0.049642798 0.10052857 -0.23661205 0.5102089 0.23196203 0.030846225 0.2580384
-0.59408706 -0.22481848 -0.06368023 -0.25366253 0.29639712 0.34955755 0.0994358 -0.15623058
0.30685502 0.3749593 0.12846264 0.08811125 0.6296554 0.2792909 0.15335171 0.20581946
-0.08560575 0.017266976 -0.19217232 -0.042099807 -0.36273423 -1.3768692 0.14910181 -0.12065388
0.5528449 0.28609812 0.17018571 0.521866 -0.13194267 0.0032898646 -0.16467503 0.010400508
-0.5201519 0.01928243 -0.07699483 0.0036769586 -0.42048484 -0.11655158 -0.17998368 0.082279764
-0.16067865 0.13561559 -0.06410587 -0.56640434 -0.113383435 -0.08528282 0.012445687 0.5911023
-0.3688403 -0.11993309 0.038559724 -0.29495308 -0.50094837 -0.93765754 -0.41927454 -0.41484362
0.033340875 0.022759147 -0.010516458 0.1520871 -0.4931907 -1.0457721 -0.18224454 0.11881741
-0.5586984 -0.75998986 -0.20986725 -0.28516483 0.39290288 0.1679691 0.024328016 0.1499351
-0.5827017 -0.48953494 -0.12705898 -0.57358617 -0.31037384 -0.33184513 -0.15186271 -0.033059057
-0.7421328 -0.4403496 -0.27644318 -0.61198676 -0.5363135 -0.4093514 0.07220476 -1.0496204
-0.27072796 -0.5508755 -0.18251714 0.1022191 -0.6477752 -0.71012133 -0.18722276 -0.4942172
