edgeAI/co_lstm_regression_v1.tflite (tflite, 518160 bytes, 9 tensors)

sequential/lstm/Read_2/ReadVariableOp f4 [512]
000000 2f 7e 68 be be 1e c0 be f4 0e b5 be 16 51 ac be
       -0.22704385 -0.37523454 -0.3536297 -0.33655614
000010 11 c4 cf be 16 a6 c6 be 4e c4 b3 bd 00 74 80 be
       -0.40579274 -0.3879859 -0.087776765 -0.250885
000020 69 86 e6 be d5 c9 3b be 6e 86 ab bd 2f f9 76 be
       -0.45024422 -0.18338712 -0.0837525 -0.24118493
000030 f4 21 fc bd b7 d6 d5 be 7e 01 b1 bd 20 00 01 bf
       -0.123111635 -0.41765377 -0.08642863 -0.50390816
000040 0b 5b 04 bf ff 1d 3a be 41 5c 22 be 04 b1 38 3e
       -0.5170142 -0.18175505 -0.15855505 0.18036276
000050 e8 e7 9a be 23 7e 7c 3c 97 9e b4 bc 7d 03 ee bd
       -0.30255055 0.015410933 -0.022048278 -0.11621759
000060 f2 a7 a9 be cf 63 13 be cc 45 4f be 2d 1c 02 be
       -0.33135945 -0.14393543 -0.20241469 -0.1270606
000070 53 8f 07 bf 16 c3 d7 bd 8b 1f bf be e3 47 d3 be
       -0.5295307 -0.105352566 -0.37328753 -0.41265783
000080 36 2b 09 3d 1b d1 e4 be 16 64 df be fb a8 08 bf
       0.033488475 -0.44690785 -0.43631047 -0.53382844
000090 ab 32 ec bd ba 21 ee be e0 c9 d3 3d ea f3 b4 be
       -0.11533102 -0.46510106 0.10341239 -0.35342342
0000a0 50 01 9e be 37 b2 ff bd b5 58 fa be cf d9 8c bb
       -0.30860376 -0.12485164 -0.48895803 -0.0042984257
0000b0 19 b5 bd be 6f c1 73 be d8 c3 83 bc f1 fb 64 be
       -0.3705223 -0.23804258 -0.016084597 -0.22361733
0000c0 3c 47 b9 be 3f 1b cd be 4e fb 93 be 3e 05 5d be
       -0.3618716 -0.4005985 -0.28902668 -0.21584031
0000d0 06 5e de be 2f 2f ad be 7b 20 86 be 45 f7 2a 3d
       -0.4343111 -0.3382506 -0.26196656 0.04173972
0000e0 bc 21 a7 be ef 5a 82 be e6 9e b6 bd 74 3d d8 be
       -0.32642925 -0.25460002 -0.08917026 -0.42234385
0000f0 ce 0b 5c be 02 15 aa be da a4 49 be 20 c0 80 3d
       -0.21488878 -0.33219153 -0.19691792 0.06286645
000100 5e 40 e4 be 23 73 08 be 81 1a 9c be e0 45 a8 be
       -0.44580358 -0.13325171 -0.3048897 -0.3286581
000110 8e 8f 46 be 9d 84 b3 bd 17 b7 fa be 6b a6 f0 bd
       -0.193907 -0.08765528 -0.4896781 -0.11750492
000120 2e f7 b9 be 16 7a 8a be 22 4d a4 be dd 11 5d bd
       -0.36321396 -0.2704627 -0.32090098 -0.053972114
000130 2f b5 7f 3b b4 f8 08 bf 24 3a 91 be 45 f4 3a bd
       0.0039017906 -0.5350449 -0.2836467 -0.04564311
000140 7f 98 a5 3d bd 8f 56 be 7b a5 e2 be c7 70 c8 be
       0.08085727 -0.2095327 -0.44266877 -0.39148542
000150 91 f4 8b be ae 04 c4 be b8 6f 43 be 88 24 71 bd
       -0.27335027 -0.3828482 -0.19085586 -0.05887273
000160 33 70 fd bd d1 74 2d be 4f e4 f1 be 2d 48 88 be
       -0.12374916 -0.16939093 -0.47244498 -0.26617566
000170 1b 2e a4 be 62 a9 8c bd d5 d5 a0 bd 4c 88 82 bd
       -0.32066426 -0.06868245 -0.07853285 -0.06373653
000180 b7 ca aa bd 9c 47 1e be 24 de be be 63 57 d7 be
       -0.08339446 -0.15457004 -0.37278855 -0.42058858
000190 99 b5 9a be a0 de 97 be 51 d7 b1 be 24 80 97 be
       -0.30216673 -0.29662037 -0.34734586 -0.2958995
0001a0 8f 01 d8 be 77 93 a7 be be 6b aa be 9d 71 1f be
       -0.4218869 -0.32729694 -0.33285326 -0.15570684
0001b0 d7 e6 9c bd 25 2f 21 bd 5f 9b 7e be c8 58 c3 bd
       -0.07661217 -0.0393516 -0.24863957 -0.09538418
0001c0 c5 87 71 be 52 ae 01 bf 46 f6 1a be ed b9 6d be
       -0.23586948 -0.50656617 -0.15133008 -0.23215456
0001d0 f4 29 20 3e 9c 75 a3 bd a0 95 b0 be aa 01 a1 be
       0.15641004 -0.079814166 -0.34489155 -0.31446582
0001e0 92 26 81 be bd 8e b9 be ff 3f 00 be f5 d9 2a be
       -0.2522474 -0.36241713 -0.12524413 -0.16684707
0001f0 b5 61 ea be d3 1a 28 3c 78 de eb bd 67 70 b9 be
       -0.4577767 0.010260302 -0.11517042 -0.3621857
000200 e2 3c 84 3f 91 8c 43 3f 41 c6 3f 3f 58 8c 4c 3f
       1.033108 0.7638636 0.74911886 0.7990165
000210 55 d5 35 3f 73 6e 3b 3f 13 34 88 3f b2 3b 52 3f
       0.71028644 0.7321541 1.0640892 0.8212234
000220 21 21 27 3f e9 6c 1d 3f 1a 29 83 3f f0 54 27 3f
       0.65284926 0.6149431 1.0246918 0.6536398
000230 95 45 81 3f d0 69 2d 3f f6 43 71 3f 59 df 1b 3f
       1.009936 0.6773958 0.94244325 0.60887676
000240 c2 67 2a 3f 70 7d 7f 3f fc 55 76 3f 2f ab 89 3f
       0.6656457 0.9980078 0.9622495 1.0755366
000250 3d b5 4e 3f f6 16 97 3f ee 47 59 3f 1a 01 81 3f
       0.807453 1.1803882 0.8487538 1.0078461
000260 c8 43 3d 3f a1 22 39 3f 3b a3 5c 3f 8a 53 8b 3f
       0.7393155 0.72318465 0.8618657 1.0884869
000270 0d 4b 12 3f f9 26 76 3f 36 81 2d 3f 4b 53 30 3f
       0.5714577 0.9615322 0.67775285 0.68877095
000280 1e 93 7e 3f c0 87 fd 3e fc d0 31 3f b9 93 1d 3f
       0.99443233 0.49517632 0.6945951 0.6155353
000290 af 05 5d 3f 21 06 2f 3f ca c3 7a 3f 28 62 41 3f
       0.863368 0.68368727 0.97955 0.755404
0002a0 97 f7 36 3f a9 5e 4d 3f 2c 53 2c 3f b5 fa 73 3f
       0.7147154 0.80222565 0.6731441 0.95304424
0002b0 fb 03 38 3f 29 86 5b 3f 28 ad 8f 3f c5 7c 29 3f
       0.71881074 0.8575159 1.1224718 0.6620601
0002c0 02 f1 41 3f 75 28 52 3f af 97 46 3f 41 c2 84 3f
       0.75758374 0.8209298 0.775752 1.0371782
0002d0 6b 60 32 3f 9c 36 49 3f 78 fb 48 3f 06 f5 6e 3f
       0.6967837 0.7859895 0.7850871 0.93342626
0002e0 c2 b0 35 3f ca a5 57 3f 36 09 73 3f 55 50 1d 3f
       0.70972836 0.8423735 0.9493593 0.614507
0002f0 92 60 75 3f e8 51 3b 3f 04 c5 39 3f d7 a1 9d 3f
       0.9585048 0.73171854 0.72566247 1.2315015
000300 0a b9 2a 3f 67 8f 30 3f c5 88 3d 3f b0 36 5e 3f
       0.666886 0.68968815 0.7403682 0.86802197
000310 24 cf 62 3f e4 03 71 3f ff 72 1c 3f dd 08 7b 3f
       0.8859732 0.9414656 0.6111297 0.980604
000320 d3 e4 44 3f dd af 57 3f b3 ac 20 3f c0 23 60 3f
       0.7691166 0.8425272 0.6276352 0.8755455
000330 ac 61 76 3f e7 5b 0d 3f ea 30 47 3f 40 54 3a 3f
       0.96242785 0.55218357 0.7780901 0.72784805
000340 b1 61 67 3f b2 d9 43 3f 43 bb 25 3f b2 94 34 3f
       0.9038344 0.7650405 0.64738864 0.7053939
000350 8a cb 43 3f e6 49 51 3f a4 26 81 3f ce ee 3c 3f
       0.7648245 0.81753385 1.0089917 0.7380189
000360 96 b9 64 3f f8 fd 69 3f 6e 63 36 3f 85 a0 4d 3f
       0.8934568 0.9140315 0.7124547 0.8032306
000370 f6 97 32 3f f9 2f 7a 3f 8b 50 82 3f 42 4c 7f 3f
       0.69763124 0.9772945 1.018083 0.99725735
000380 2c 84 7b 3f c5 d5 81 3f e0 95 1f 3f 84 ba 36 3f
       0.98248553 1.0143362 0.62338066 0.7137835
000390 96 30 4f 3f cc 83 47 3f 69 83 2f 3f 73 ba 39 3f
       0.8093351 0.7793548 0.6855989 0.72550124
0003a0 d9 8d 2e 3f 4b 0f 47 3f 9d 9a 49 3f 34 0f 87 3f
       0.6818519 0.7775771 0.78751546 1.0551515
0003b0 a0 32 58 3f 55 a0 85 3f 5f 4e 69 3f f1 92 47 3f
       0.8445225 1.0439554 0.9113521 0.7795859
0003c0 c4 be 4d 3f cf 38 1a 3f a9 a3 49 3f 61 07 42 3f
       0.8036921 0.60242933 0.7876535 0.7579251
0003d0 74 45 77 3f 76 0e 89 3f 3d 20 2a 3f 4f e6 45 3f
       0.9659035 1.0707538 0.6645544 0.7730455
0003e0 26 c2 4c 3f 54 80 33 3f c0 7f 7d 3f a9 ae 55 3f
       0.79983747 0.7011769 0.99023056 0.83469635
0003f0 09 fc 28 3f 63 7c 78 3f b8 3d 56 3f 3a 67 43 3f
       0.66009575 0.970648 0.83687925 0.76329386

sequential/lstm_1/Read_2/ReadVariableOp f4 [256]
000000 28 13 9f bd 5f 1d d5 be 55 1c b5 be 53 9e b0 be
       -0.07767326 -0.4162397 -0.35373178 -0.34495792
000010 1a 20 7c be ed 88 93 be bc 87 82 3d 35 df 1a 3e
       -0.24621621 -0.28815404 0.063735455 0.15124209
000020 55 b4 aa be 9f d0 f4 be 86 08 c2 be f1 20 7d be
       -0.33340707 -0.47815415 -0.37897128 -0.24719597
000030 b7 f1 ce be ae 05 13 bf d8 43 be be bd 9a c4 be
       -0.4041879 -0.5743054 -0.37161136 -0.38399306
000040 5a fe 91 be 0f b2 ec be 76 d4 a8 be 3d 34 af be
       -0.28514367 -0.46229598 -0.32974595 -0.34219542
000050 4a fb eb bd 5d a3 08 bf e6 d0 be be ae b6 dc be
       -0.11522539 -0.5337427 -0.37268752 -0.43108124
000060 d9 40 bf be 9a 34 3f be 10 79 a6 be 6e e6 bf be
       -0.37354162 -0.1867241 -0.32514238 -0.3748049
000070 35 d2 9e be 73 40 f4 be 05 5c 77 be 55 08 a9 be
       -0.3101975 -0.4770542 -0.24156196 -0.3301417
000080 84 b9 f7 be 99 43 95 be 6a f0 d5 be ff 93 91 be
       -0.48383725 -0.29153135 -0.41784984 -0.28433225
000090 10 e7 74 be d1 c8 97 be 41 67 8b bc 04 6d b1 bd
       -0.23916268 -0.29645398 -0.017017009 -0.08663371
0000a0 64 8f d4 be 7f 3d 9e be cc 0e 66 bc a4 1c a4 be
       -0.41515648 -0.30906293 -0.014041614 -0.320531
0000b0 39 84 d6 be 64 40 ea be 71 5a 44 bd 68 75 a2 be
       -0.41897753 -0.4575225 -0.047937814 -0.317302
0000c0 47 bb 09 bf 92 c3 f2 be 13 7a 5a be 12 f3 d5 3d
       -0.5380139 -0.47414833 -0.2133563 0.104467526
0000d0 3b f0 92 be 61 ac b7 be d0 4b cd be e3 55 9b be
       -0.28698906 -0.35873702 -0.40096903 -0.30338964
0000e0 a5 0c 45 be 3c 21 75 be 83 de ac be 03 9d 9a be
       -0.19243105 -0.23938459 -0.33763513 -0.30197915
0000f0 9d 54 66 be 54 7d 89 be 42 f2 c6 be 7d 47 b2 be
       -0.22493215 -0.2685343 -0.38856703 -0.34820166
000100 d0 1a 15 3f 87 b7 34 3f a0 5d 3b 3f 92 72 3c 3f
       0.5824404 0.7059254 0.73189735 0.7361232
000110 64 fe 41 3f d1 e1 48 3f 7b f7 40 3f f0 bd 78 3f
       0.75778794 0.7846957 0.75377625 0.9716482
000120 0a 1a 5e 3f 99 3e 65 3f 51 54 65 3f 0e ab 36 3f
       0.8675848 0.8954864 0.8958178 0.7135476
000130 3a d3 60 3f 2b 62 51 3f 25 8e 6a 3f 76 61 47 3f
       0.87822306 0.8179042 0.91623145 0.7788309
000140 8f 2e 79 3f 36 92 61 3f 56 91 70 3f e9 5c 58 3f
       0.9733667 0.88113725 0.93971765 0.8451677
000150 9f cd 46 3f 92 21 3e 3f c5 b6 33 3f 4f 20 14 3f
       0.776575 0.74269974 0.7020076 0.578618
000160 07 25 27 3f 7a 8a 21 3f 5f b4 55 3f 25 ad 05 3f
       0.65290874 0.63101923 0.8347835 0.5221732
000170 b1 73 72 3f 30 bb 48 3f 5e f7 55 3f fa 74 43 3f
       0.9470778 0.78410625 0.8358058 0.7635037
000180 a3 da 53 3f d2 72 88 3f 09 67 40 3f bb a7 3e 3f
       0.8275549 1.066004 0.7515722 0.74474686
000190 6b 3d 4b 3f 40 9d 57 3f a6 b8 58 3f bc cc 46 3f
       0.7939059 0.8422432 0.8465675 0.7765615
0001a0 1e e0 68 3f ed 51 26 3f f0 00 1d 3f 91 d5 49 3f
       0.90966976 0.6496876 0.61329556 0.788415
0001b0 02 af 39 3f 24 ce 45 3f a8 1a 9e 3f f2 ef 45 3f
       0.72532666 0.7726767 1.2351885 0.7731925
0001c0 06 74 45 3f 16 95 26 3f 53 e8 41 3f 0c be 8f 3f
       0.7713016 0.6507124 0.75745124 1.1229873
0001d0 bb 15 44 3f 86 41 49 3f 3a 78 2c 3f a0 fa 67 3f
       0.7659566 0.78615606 0.6737095 0.906168
0001e0 b4 93 5b 3f 99 ec 14 3f f5 e5 56 3f 8f ce 31 3f
       0.8577225 0.5817352 0.83944637 0.6945581
0001f0 a8 d6 4e 3f c0 71 4d 3f 23 f3 3c 3f 9a aa 2b 3f
       0.8079629 0.80251694 0.738085 0.6705719
000200 02 20 df 3d 25 4e 1a 3d 28 6a db 3c d0 ed be 3b
       0.10894777 0.03767218 0.026784018 0.0058266893
000210 e4 bc 4b 3d 23 09 7a bd 8f 63 6d bd 3f c1 1b 3e
       0.049740687 -0.06104387 -0.057956275 0.15210436
000220 79 80 cc bc db e0 09 bd 21 15 f7 bc 30 14 f2 bc
       -0.024963604 -0.033661705 -0.030161442 -0.029550642
000230 2b 0a bf bb 48 ba 6a b9 4c a4 13 3d 95 f2 72 3b
       -0.0058300695 -0.00022385374 0.036045358 0.003707086
000240 a8 60 b2 3c 2d 41 77 bd ce 10 78 bc a6 ef 02 3d
       0.021774605 -0.06036489 -0.015140725 0.031966828
000250 83 db 74 bd 64 c4 25 3d d6 06 c9 bc ca 46 21 3c
       -0.059779655 0.040470496 -0.024539392 0.009843538
000260 b4 9f 31 bd af f7 d7 3c 4a f9 d6 bc 16 a6 c3 3d
       -0.043365195 0.026363222 -0.026241917 0.09553163
000270 7a 23 d0 bb ba 9c 20 bc a4 8d d5 3c a8 66 80 bc
       -0.0063518854 -0.0098029915 0.026068516 -0.01567395
000280 87 71 2d 3d 65 bb b1 bc 1c 49 ca bc 19 b3 35 3d
       0.042344596 -0.021695802 -0.024693064 0.044360254
000290 dd 5a 9f bd ef 56 07 bd 72 e7 db bd 87 a6 aa 3c
       -0.07781003 -0.03304189 -0.10737504 0.02083136
0002a0 57 6f 80 3d f4 ab 29 3c b6 bd 27 3d 74 ef 0c bd
       0.062712364 0.010355938 0.040952407 -0.034408048
0002b0 27 f0 59 3d 6a 43 3d 3d d2 26 98 3d db f2 05 3c
       0.053207543 0.04620687 0.074292794 0.008175577
0002c0 8f 64 a3 bc 1d 30 f7 bd c2 21 e7 3c 3d 2a 19 bd
       -0.019945411 -0.12069724 0.02821434 -0.037393797
0002d0 7a a0 a0 bc 2c c2 37 bd 21 37 3e bd 48 5c d3 bb
       -0.019607771 -0.04486291 -0.046439294 -0.0064502098
0002e0 b1 ad 55 bd f8 09 ef 3d c4 01 93 bd 85 48 4f 3d
       -0.0521676 0.11671823 -0.07178071 0.05060627
0002f0 3f b7 5b 3c d4 4b 2b bd ae f8 d3 3c 40 f0 c7 bd
       0.0134103885 -0.041820362 0.025875416 -0.09762621
000300 86 24 44 be d6 f8 d9 be bf dc b6 be 4a 2a b2 be
       -0.19154558 -0.4257266 -0.3571529 -0.3479789
000310 d4 36 a6 be f6 b8 9a be 38 6c ac 3b e1 4b 41 3d
       -0.32463706 -0.3021924 0.005261924 0.047191504
000320 be f2 c1 be 00 d2 02 bf d0 dd 01 bf 7b 56 84 be
       -0.3788051 -0.51101685 -0.50729084 -0.2584723
000330 4e 28 e4 be 1a b4 0e bf fc 5a d4 be 0d 8c c3 be
       -0.44562 -0.55743563 -0.41475666 -0.38192788
000340 73 de 91 be 13 60 eb be ff 52 a4 be 9e ce ba be
       -0.28490028 -0.45971736 -0.3209457 -0.3648576
000350 0b bb 78 be 96 0d 0a bf 55 65 cb be 25 ee dc be
       -0.24290101 -0.5392698 -0.39725748 -0.4315044
000360 5f 8a c6 be 9a 6a 83 be 63 e2 9e be 8f 9a d9 be
       -0.38777444 -0.25667268 -0.31032094 -0.4250073
000370 fb 43 9c be c0 c6 03 bf 0a 24 81 be 57 5d b9 be
       -0.30520615 -0.51475143 -0.25222808 -0.36204025
000380 8d 02 e5 be f0 ae fe be 52 3c d4 be 95 99 95 be
       -0.4472851 -0.49742842 -0.4145227 -0.29218736
000390 df e4 8e be 6d 8e a4 be 49 09 e8 bc 1e 3b c5 bd
       -0.2790899 -0.32139912 -0.02832474 -0.09630416
0003a0 b7 8e c8 be 7e 80 b5 be a6 b8 e1 bd 4f bd b7 be
       -0.39171383 -0.35449594 -0.11021547 -0.35886618
0003b0 23 7d d3 be 46 89 e5 be 0f 7b c0 3d dc 16 da be
       -0.4130641 -0.44831294 0.093984716 -0.42595565
0003c0 c1 a6 0a bf 7b 38 f8 be 09 a5 6c be d1 ff d9 bd
       -0.54160696 -0.4848059 -0.23109831 -0.10644496
0003d0 81 db 97 be 78 3d bd be 32 c1 c5 be 10 b1 f8 be
       -0.29659656 -0.3696096 -0.3862396 -0.48572588
0003e0 e7 fb 80 be 2f d9 98 be 44 2f c7 be 32 80 a5 be
       -0.25192186 -0.29853198 -0.38903248 -0.32324368
0003f0 8b 9d 83 be 02 8b 6f be 69 35 cf be a0 7a ff be
       -0.25706133 -0.23392871 -0.40470436 -0.49898243

sequential/dense/MatMul f4 [1, 64]
000000 4b d4 ab bc 80 d3 3b bd f5 bf de bd 7a 5b e3 bd
       -0.020975253 -0.045856 -0.10876457 -0.11101432
000010 0d e0 42 3e 1a f4 00 3e be b6 30 be 85 cd 8b bb
       0.19030781 0.12593117 -0.1725721 -0.004266443
000020 b3 26 fb 3d cf 39 00 3d 05 9a 26 3d 40 bf 32 be
       0.12263241 0.03130513 0.04067423 -0.17455769
000030 a5 32 e7 3c 7e 01 db bc 5c c8 98 bd 71 59 04 be
       0.028222391 -0.02673411 -0.074600905 -0.12924744
000040 7c fc e3 3d c6 1a 05 3d 8c 4e 9b bd a4 9a 19 be
       0.11132142 0.032496236 -0.07583341 -0.15000397
000050 ef b8 c6 3d 22 96 3b bd e2 96 ec 3d cb 18 94 bd
       0.09703242 -0.045797475 0.11552216 -0.072312914
000060 64 45 02 3e 93 61 25 be 75 79 0a 3e 41 cd a0 bd
       0.12721783 -0.16150503 0.13522895 -0.07851649
000070 27 32 32 bd fa 9b 84 3d f3 31 14 3e df 9e 21 be
       -0.04350486 0.06475063 0.14472179 -0.15783261
000080 f3 9d b5 bd cc 15 40 3c c7 0a f4 bd 17 be 04 be
       -0.08868017 0.011723947 -0.11916118 -0.12963139
000090 56 b3 12 be 07 55 11 3e 74 d5 b8 3b 41 de 0c be
       -0.14326224 0.14192592 0.00564068 -0.13756658
0000a0 e9 2e 00 3d 37 a8 59 be 98 17 9f 3e 67 43 2e be
       0.031294737 -0.21255575 0.31072688 -0.170179
0000b0 bc 16 ef bd 55 37 b7 bc 6f 9a d7 bb a2 91 d6 bc
       -0.11674258 -0.022365252 -0.006579689 -0.02619249
0000c0 8e 77 39 3d 1d 59 20 3d c9 30 16 be 95 c4 29 3b
       0.04528003 0.039147485 -0.14667048 0.0025904526
0000d0 de f8 ed 3d da 96 08 3e b8 89 af 3d 6f 62 5a bc
       0.11619733 0.13338795 0.0857119 -0.013329132
0000e0 4b 44 4e be 52 1f 3b bd 49 0e c4 3d 83 5c 2d be
       -0.20143239 -0.045684166 0.09573037 -0.16929822
0000f0 c5 48 1e 3e b0 89 ed bc f0 bf 18 be 3d 7c 4c 3d
       0.15457447 -0.028996319 -0.14916968 0.04992317

sequential/lstm/Read_2/ReadVariableOp1 f4 [512]
000000 2f 7e 68 be be 1e c0 be f4 0e b5 be 16 51 ac be
       -0.22704385 -0.37523454 -0.3536297 -0.33655614
000010 11 c4 cf be 16 a6 c6 be 4e c4 b3 bd 00 74 80 be
       -0.40579274 -0.3879859 -0.087776765 -0.250885
000020 69 86 e6 be d5 c9 3b be 6e 86 ab bd 2f f9 76 be
       -0.45024422 -0.18338712 -0.0837525 -0.24118493
000030 f4 21 fc bd b7 d6 d5 be 7e 01 b1 bd 20 00 01 bf
       -0.123111635 -0.41765377 -0.08642863 -0.50390816
000040 0b 5b 04 bf ff 1d 3a be 41 5c 22 be 04 b1 38 3e
       -0.5170142 -0.18175505 -0.15855505 0.18036276
000050 e8 e7 9a be 23 7e 7c 3c 97 9e b4 bc 7d 03 ee bd
       -0.30255055 0.015410933 -0.022048278 -0.11621759
000060 f2 a7 a9 be cf 63 13 be cc 45 4f be 2d 1c 02 be
       -0.33135945 -0.14393543 -0.20241469 -0.1270606
000070 53 8f 07 bf 16 c3 d7 bd 8b 1f bf be e3 47 d3 be
       -0.5295307 -0.105352566 -0.37328753 -0.41265783
000080 36 2b 09 3d 1b d1 e4 be 16 64 df be fb a8 08 bf
       0.033488475 -0.44690785 -0.43631047 -0.53382844
000090 ab 32 ec bd ba 21 ee be e0 c9 d3 3d ea f3 b4 be
       -0.11533102 -0.46510106 0.10341239 -0.35342342
0000a0 50 01 9e be 37 b2 ff bd b5 58 fa be cf d9 8c bb
       -0.30860376 -0.12485164 -0.48895803 -0.0042984257
0000b0 19 b5 bd be 6f c1 73 be d8 c3 83 bc f1 fb 64 be
       -0.3705223 -0.23804258 -0.016084597 -0.22361733
0000c0 3c 47 b9 be 3f 1b cd be 4e fb 93 be 3e 05 5d be
       -0.3618716 -0.4005985 -0.28902668 -0.21584031
0000d0 06 5e de be 2f 2f ad be 7b 20 86 be 45 f7 2a 3d
       -0.4343111 -0.3382506 -0.26196656 0.04173972
0000e0 bc 21 a7 be ef 5a 82 be e6 9e b6 bd 74 3d d8 be
       -0.32642925 -0.25460002 -0.08917026 -0.42234385
0000f0 ce 0b 5c be 02 15 aa be da a4 49 be 20 c0 80 3d
       -0.21488878 -0.33219153 -0.19691792 0.06286645
000100 5e 40 e4 be 23 73 08 be 81 1a 9c be e0 45 a8 be
       -0.44580358 -0.13325171 -0.3048897 -0.3286581
000110 8e 8f 46 be 9d 84 b3 bd 17 b7 fa be 6b a6 f0 bd
       -0.193907 -0.08765528 -0.4896781 -0.11750492
000120 2e f7 b9 be 16 7a 8a be 22 4d a4 be dd 11 5d bd
       -0.36321396 -0.2704627 -0.32090098 -0.053972114
000130 2f b5 7f 3b b4 f8 08 bf 24 3a 91 be 45 f4 3a bd
       0.0039017906 -0.5350449 -0.2836467 -0.04564311
000140 7f 98 a5 3d bd 8f 56 be 7b a5 e2 be c7 70 c8 be
       0.08085727 -0.2095327 -0.44266877 -0.39148542
000150 91 f4 8b be ae 04 c4 be b8 6f 43 be 88 24 71 bd
       -0.27335027 -0.3828482 -0.19085586 -0.05887273
000160 33 70 fd bd d1 74 2d be 4f e4 f1 be 2d 48 88 be
       -0.12374916 -0.16939093 -0.47244498 -0.26617566
000170 1b 2e a4 be 62 a9 8c bd d5 d5 a0 bd 4c 88 82 bd
       -0.32066426 -0.06868245 -0.07853285 -0.06373653
000180 b7 ca aa bd 9c 47 1e be 24 de be be 63 57 d7 be
       -0.08339446 -0.15457004 -0.37278855 -0.42058858
000190 99 b5 9a be a0 de 97 be 51 d7 b1 be 24 80 97 be
       -0.30216673 -0.29662037 -0.34734586 -0.2958995
0001a0 8f 01 d8 be 77 93 a7 be be 6b aa be 9d 71 1f be
       -0.4218869 -0.32729694 -0.33285326 -0.15570684
0001b0 d7 e6 9c bd 25 2f 21 bd 5f 9b 7e be c8 58 c3 bd
       -0.07661217 -0.0393516 -0.24863957 -0.09538418
0001c0 c5 87 71 be 52 ae 01 bf 46 f6 1a be ed b9 6d be
       -0.23586948 -0.50656617 -0.15133008 -0.23215456
0001d0 f4 29 20 3e 9c 75 a3 bd a0 95 b0 be aa 01 a1 be
       0.15641004 -0.079814166 -0.34489155 -0.31446582
0001e0 92 26 81 be bd 8e b9 be ff 3f 00 be f5 d9 2a be
       -0.2522474 -0.36241713 -0.12524413 -0.16684707
0001f0 b5 61 ea be d3 1a 28 3c 78 de eb bd 67 70 b9 be
       -0.4577767 0.010260302 -0.11517042 -0.3621857
000200 e2 3c 84 3f 91 8c 43 3f 41 c6 3f 3f 58 8c 4c 3f
       1.033108 0.7638636 0.74911886 0.7990165
000210 55 d5 35 3f 73 6e 3b 3f 13 34 88 3f b2 3b 52 3f
       0.71028644 0.7321541 1.0640892 0.8212234
000220 21 21 27 3f e9 6c 1d 3f 1a 29 83 3f f0 54 27 3f
       0.65284926 0.6149431 1.0246918 0.6536398
000230 95 45 81 3f d0 69 2d 3f f6 43 71 3f 59 df 1b 3f
       1.009936 0.6773958 0.94244325 0.60887676
000240 c2 67 2a 3f 70 7d 7f 3f fc 55 76 3f 2f ab 89 3f
       0.6656457 0.9980078 0.9622495 1.0755366
000250 3d b5 4e 3f f6 16 97 3f ee 47 59 3f 1a 01 81 3f
       0.807453 1.1803882 0.8487538 1.0078461
000260 c8 43 3d 3f a1 22 39 3f 3b a3 5c 3f 8a 53 8b 3f
       0.7393155 0.72318465 0.8618657 1.0884869
000270 0d 4b 12 3f f9 26 76 3f 36 81 2d 3f 4b 53 30 3f
       0.5714577 0.9615322 0.67775285 0.68877095
000280 1e 93 7e 3f c0 87 fd 3e fc d0 31 3f b9 93 1d 3f
       0.99443233 0.49517632 0.6945951 0.6155353
000290 af 05 5d 3f 21 06 2f 3f ca c3 7a 3f 28 62 41 3f
       0.863368 0.68368727 0.97955 0.755404
0002a0 97 f7 36 3f a9 5e 4d 3f 2c 53 2c 3f b5 fa 73 3f
       0.7147154 0.80222565 0.6731441 0.95304424
0002b0 fb 03 38 3f 29 86 5b 3f 28 ad 8f 3f c5 7c 29 3f
       0.71881074 0.8575159 1.1224718 0.6620601
0002c0 02 f1 41 3f 75 28 52 3f af 97 46 3f 41 c2 84 3f
       0.75758374 0.8209298 0.775752 1.0371782
0002d0 6b 60 32 3f 9c 36 49 3f 78 fb 48 3f 06 f5 6e 3f
       0.6967837 0.7859895 0.7850871 0.93342626
0002e0 c2 b0 35 3f ca a5 57 3f 36 09 73 3f 55 50 1d 3f
       0.70972836 0.8423735 0.9493593 0.614507
0002f0 92 60 75 3f e8 51 3b 3f 04 c5 39 3f d7 a1 9d 3f
       0.9585048 0.73171854 0.72566247 1.2315015
000300 0a b9 2a 3f 67 8f 30 3f c5 88 3d 3f b0 36 5e 3f
       0.666886 0.68968815 0.7403682 0.86802197
000310 24 cf 62 3f e4 03 71 3f ff 72 1c 3f dd 08 7b 3f
       0.8859732 0.9414656 0.6111297 0.980604
000320 d3 e4 44 3f dd af 57 3f b3 ac 20 3f c0 23 60 3f
       0.7691166 0.8425272 0.6276352 0.8755455
000330 ac 61 76 3f e7 5b 0d 3f ea 30 47 3f 40 54 3a 3f
       0.96242785 0.55218357 0.7780901 0.72784805
000340 b1 61 67 3f b2 d9 43 3f 43 bb 25 3f b2 94 34 3f
       0.9038344 0.7650405 0.64738864 0.7053939
000350 8a cb 43 3f e6 49 51 3f a4 26 81 3f ce ee 3c 3f
       0.7648245 0.81753385 1.0089917 0.7380189
000360 96 b9 64 3f f8 fd 69 3f 6e 63 36 3f 85 a0 4d 3f
       0.8934568 0.9140315 0.7124547 0.8032306
000370 f6 97 32 3f f9 2f 7a 3f 8b 50 82 3f 42 4c 7f 3f
       0.69763124 0.9772945 1.018083 0.99725735
000380 2c 84 7b 3f c5 d5 81 3f e0 95 1f 3f 84 ba 36 3f
       0.98248553 1.0143362 0.62338066 0.7137835
000390 96 30 4f 3f cc 83 47 3f 69 83 2f 3f 73 ba 39 3f
       0.8093351 0.7793548 0.6855989 0.72550124
0003a0 d9 8d 2e 3f 4b 0f 47 3f 9d 9a 49 3f 34 0f 87 3f
       0.6818519 0.7775771 0.78751546 1.0551515
0003b0 a0 32 58 3f 55 a0 85 3f 5f 4e 69 3f f1 92 47 3f
       0.8445225 1.0439554 0.9113521 0.7795859
0003c0 c4 be 4d 3f cf 38 1a 3f a9 a3 49 3f 61 07 42 3f
       0.8036921 0.60242933 0.7876535 0.7579251
0003d0 74 45 77 3f 76 0e 89 3f 3d 20 2a 3f 4f e6 45 3f
       0.9659035 1.0707538 0.6645544 0.7730455
0003e0 26 c2 4c 3f 54 80 33 3f c0 7f 7d 3f a9 ae 55 3f
       0.79983747 0.7011769 0.99023056 0.83469635
0003f0 09 fc 28 3f 63 7c 78 3f b8 3d 56 3f 3a 67 43 3f
       0.66009575 0.970648 0.83687925 0.76329386

while/MatMul_11 f4 [512, 128]
000000 20 34 41 be d2 2c ff be bb bd 7e be f8 2c 11 3f
       -0.1886754 -0.49838883 -0.24877064 0.5670924
000010 fb fa 0f be 22 c3 54 3e 7e cc ce be 8b 45 19 3e
       -0.14060585 0.20777562 -0.4039039 0.14967935
000020 db c9 ca 3e 6d 4c bf bd 29 4d 9c 3e 80 22 8f bd
       0.39607129 -0.09340749 0.3052762 -0.06989002
000030 6d 0d 81 3f c6 bc b9 3d fa 04 b4 be 26 f4 1f 3e
       1.0082222 0.09069209 -0.35160047 0.15620479
000040 ef f5 3e 3e 61 ef a4 bc d0 be b3 be e3 a6 65 be
       0.18648504 -0.020133676 -0.35106516 -0.22426943
000050 ae 9d 22 be 3a 27 6d bd e8 a2 3c 3f 37 47 5f 3d
       -0.15880463 -0.057898737 0.73686075 0.054511275
000060 72 1e 11 3f db de 89 3e 2c 42 9b 3e 5d 51 9c be
       0.5668708 0.26927838 0.30323923 -0.30530825
000070 c7 36 e4 bc d0 22 3b be ac 73 3d be f6 c8 e4 bd
       -0.027858151 -0.18274999 -0.18501157 -0.11171143
000080 10 69 c6 3e 4b 9b 2b bc a5 d1 a5 be e0 4e 66 3e
       0.3875203 -0.010474036 -0.3238651 0.22491026
000090 5d 66 de be 1b 6e 93 be ae b2 95 bf 1f 8a 08 3e
       -0.43437472 -0.2879494 -1.1695154 0.13333939
0000a0 c4 d2 92 3e ca 43 ce 3e 1b df 13 3e 3d 16 1d be
       0.28676426 0.40286094 0.14440577 -0.15340514
0000b0 9e d2 8c 3e 4e 2e 29 3e 67 a8 71 bd 41 ff fd 3e
       0.27504438 0.1652157 -0.05899849 0.49608806
0000c0 5f 72 88 3e 7a 22 eb be a1 3d ff be 59 e5 30 bf
       0.26649758 -0.4592474 -0.49851707 -0.69099957
0000d0 2b 84 95 3d b5 8e b3 be ea 75 2f bc 3f 16 b8 3e
       0.073006 -0.35069814 -0.010709265 0.35954472
0000e0 48 9d af be d4 05 51 3e aa 5a 6d 3e 57 ef 8a 3c
       -0.34299684 0.2041238 0.23179117 0.01695983
0000f0 0e 6f 7c bf dc 0f 01 3d 33 98 3f 3d 23 94 69 3e
       -0.98606956 0.031509265 0.046776008 0.22810416
000100 26 77 55 bd f1 ba 2b be 23 96 73 be c7 78 95 bd
       -0.052115582 -0.16770531 -0.23787741 -0.07298427
000110 55 1b a9 3c 09 b4 bf 3c 26 f8 16 3e 78 31 ca 39
       0.020642916 0.023401277 0.14743099 0.000385653
000120 97 c0 89 be 75 0e 0a bd dc 64 92 bc d0 04 90 3d
       -0.26904747 -0.033705194 -0.01787036 0.07032168
000130 34 3e 4a be 3e 83 25 3e 12 94 a6 be e9 51 5b 3e
       -0.19750291 0.16163346 -0.32534844 0.21417965
000140 d9 d1 8a bd 15 1c 95 be 16 c5 70 bd a3 ac 95 3e
       -0.067783065 -0.29122987 -0.058781706 0.29233274
000150 98 68 98 be 69 18 b6 be a6 96 f0 be 88 11 b7 bd
       -0.297673 -0.35565498 -0.46989936 -0.08938891
000160 7d fb 77 3e 33 f7 81 3e e9 d3 ba 3e ce 64 74 3d
       0.24217029 0.2538391 0.364898 0.059666447
000170 77 d3 10 3f f6 3f ca bc ea fd 91 bf 03 fa 21 be
       0.5657267 -0.024688702 -1.1405613 -0.15818028
000180 2c 42 03 bd c3 8f 0a bf c4 bb bb be 90 1d 9e 3e
       -0.03204553 -0.5412561 -0.3666669 0.3088193
000190 17 22 11 bf 9b a2 15 3d 77 c5 c5 bd d5 9e 7c 3c
       -0.5669264 0.036532026 -0.09656804 0.015418728
0001a0 ac d5 90 3d 76 bc 8d be f5 96 36 bb 6f bc 9d 3f
       0.07072005 -0.27682847 -0.0027860973 1.232313
0001b0 f5 98 b0 bd a4 b6 97 be 18 e7 2d be 6e c3 d5 be
       -0.08622924 -0.2963153 -0.16982687 -0.41750664
0001c0 a4 bc fd be a7 69 60 be a9 21 c7 be bc 6c 57 3e
       -0.49557984 -0.21915303 -0.38892868 0.21037573
0001d0 08 78 d4 3e 24 1f e9 bc f6 b1 15 be 7f 9e a4 be
       0.41497827 -0.028457232 -0.14618668 -0.32152173
0001e0 8c 96 22 be 62 fb fe 3d 7d 48 46 3c e2 2a 31 ba
       -0.15877742 0.12450291 0.0121022435 -0.0006758404
0001f0 75 39 f5 bc 2e fb 6d 3e a4 f7 34 3f a8 39 01 3f
       -0.029934624 0.23240349 0.7069037 0.504786
000200 1e f6 47 be 8e 0e 58 bd da 3d 73 be f3 c1 d9 3c
       -0.1952748 -0.052748255 -0.23754063 0.02658174
000210 11 6a 69 bc 88 24 42 3e 51 4c a4 3d 8c 1d 51 bd
       -0.01424648 0.18959248 0.08022369 -0.05105357
000220 76 da 07 3e 29 8a 2f be a6 2c 4a 3e 9c 8f 0b bd
       0.1326693 -0.17142548 0.19743595 -0.034072503
000230 37 08 87 3e 5f 4e b2 bd 5c fc 89 bd 2d db f9 3d
       0.26373455 -0.08706354 -0.06737587 0.122000076
000240 bd dc 4a 3d 7e cc 2d be 33 49 e0 3d dc 5c ab 3c
       0.04952692 -0.16972539 0.10951462 0.020918302
000250 3d 57 0b be 78 ae 5f be e6 4d 58 3e d5 90 f2 bc
       -0.13607498 -0.21843898 0.21123466 -0.029610077
000260 99 fa 8c 3e 8e 68 97 3e 39 af 7f 3e 70 68 2d bd
       0.2753494 0.29571956 0.24969186 -0.042335927
000270 77 ad 00 3e 0c dc 4c 3d 5d c5 59 be 6a 42 5a bd
       0.12566172 0.05001454 -0.21266694 -0.053285994
000280 07 d8 a8 be 8c 2c 7c bd 4a ef d4 bd 3b 57 39 bd
       -0.32977316 -0.06156592 -0.10397203 -0.045249205
000290 4c 63 4b bd 99 6f fe bd 61 4c 0d bf c2 0d 1a 3e
       -0.049655244 -0.12423629 -0.5519467 0.1504431
0002a0 e1 66 dc 3d d4 b1 b5 3e 4b cf 00 3d 64 33 93 3a
       0.1076181 0.35487235 0.03144769 0.0011230526
0002b0 39 51 2f 3e dd a7 eb 3d 25 a8 90 bd 53 01 13 3e
       0.17120828 0.11506627 -0.07063321 0.14355974
0002c0 d6 93 7b 3d 08 e2 9a be f6 ae 07 be 40 92 91 be
       0.061420284 -0.30250573 -0.13250336 -0.28431892
0002d0 f6 b9 44 bd 58 c5 4f be a5 6c 39 be 0f af e9 bb
       -0.04802891 -0.20290124 -0.18107851 -0.0071314643
0002e0 c7 0c 60 be e7 95 c5 3c 84 d7 df 3c 7a 4e 94 3d
       -0.21879874 0.02411933 0.027324446 0.07241531
0002f0 be 3d 12 be 44 67 0f 3e 16 ea cb 3d 9b ea 20 3f
       -0.14281365 0.14004236 0.09956758 0.6285798
000300 8f a2 71 3c e5 b5 82 be 67 e3 01 3e dd a5 37 be
       0.01474823 -0.255294 0.12684403 -0.17934366
000310 b1 e0 10 be a1 b8 60 3e 5d 2c dd 3d bd a2 da bd
       -0.14148213 0.2194543 0.10799477 -0.10675571
000320 37 ac 20 be c2 4c a9 be 70 3a b3 bd 87 11 e0 bd
       -0.15690695 -0.33066374 -0.087513804 -0.10940843
000330 22 ce 01 bf fd 7c fa 3d 14 ff 00 be 25 77 64 be
       -0.5070516 0.12230871 -0.12597305 -0.22311075
000340 3e 68 0f be 31 5c 14 bd 6e 57 b8 bc 21 5c 85 bc
       -0.14004609 -0.036220733 -0.022502627 -0.016279282
000350 b0 56 9d bc 3d 05 69 be 5c 5f 36 bf fc bc 74 3d
       -0.019206375 -0.22755904 -0.71239257 0.059750542
000360 a6 1e 05 3f 59 0e 5e bd 2a d3 a0 3e 7a 7f 2a 3e
       0.5199989 -0.0542129 0.31411105 0.16650191
000370 46 59 3b 3e c6 2b c8 be b8 0f 21 be 3d 3a 4f bf
       0.18295774 -0.39095896 -0.15728652 -0.8094824
000380 64 1f 33 be 80 81 8a bd ea 76 0b be 77 0d c9 3d
       -0.17492443 -0.067629814 -0.13619581 0.09817021
000390 42 df 3e be 5d 9a 06 be da e4 87 3d 50 5c ac 3d
       -0.18639854 -0.13144822 0.06635447 0.08416045
0003a0 7f 64 d8 bd 36 d5 58 be e4 c5 f5 bd f3 01 a8 3e
       -0.10566043 -0.21175084 -0.12000635 0.32813987
0003b0 6b 04 7f be 22 1e 54 be d3 60 14 be 94 a4 b2 bd
       -0.24904029 -0.2071462 -0.1449006 -0.08722797
0003c0 ae 96 a4 be bd d8 7c be 85 13 43 3e 0b 4c a3 3e
       -0.3214621 -0.24692054 0.19050415 0.31893954
0003d0 cc 2f ec 3e c0 e8 15 be 53 4c 3d bd c0 db e1 bd
       0.46130216 -0.14639568 -0.046215367 -0.11028242
0003e0 a9 4c 4c bd c0 ce 87 3d ed f7 aa 3e af b1 0c be
       -0.049877796 0.06631231 0.33392277 -0.13739656
0003f0 c4 e6 e2 3b fe 85 65 3c 1b 24 22 3e a1 3a bc 3d
       0.006924482 0.014008997 0.15834086 0.0919087

while/MatMul f4 [512, 18]
000000 79 4f 7b 3c cb 05 94 be 1a eb 20 be e4 86 a1 be
       0.015338772 -0.2891067 -0.15714684 -0.31548226
000010 17 1e a9 be 34 30 b2 be 40 03 a8 bd 14 5e a5 be
       -0.3303077 -0.348024 -0.08203745 -0.32298338
000020 4b 2a 37 be 17 f4 a7 be 9f 57 ce be ca 34 48 be
       -0.17887227 -0.32803413 -0.40301225 -0.19551387
000030 5b 22 d0 bd a2 7a 3f be de 91 91 bd 28 60 b2 be
       -0.10162803 -0.18699124 -0.071079 -0.34838986
000040 5b 8b 33 be 1f a2 9e bd af 9f fb be a2 d3 6f be
       -0.17533629 -0.07745766 -0.49145266 -0.23420575
000050 84 b8 68 be ae 29 d4 be a8 d5 8a be 5a ee 84 be
       -0.22726637 -0.4143805 -0.27116132 -0.25963098
000060 a6 85 8a be 25 82 26 bf d8 05 e0 be cf f7 0a bf
       -0.2705509 -0.65042335 -0.43754458 -0.54284376
000070 cb 2a 09 bf e0 43 24 bf 58 27 29 bf 7e ad 6c bf
       -0.5358092 -0.6416607 -0.6607566 -0.9245223
000080 c5 26 59 bf c7 32 0f bf 65 e4 21 bf b8 06 49 bf
       -0.8482478 -0.55936855 -0.6323913 -0.78525877
000090 93 b6 de be fa 85 ae be e7 27 a0 be cb e3 ea be
       -0.43498668 -0.3408659 -0.31280443 -0.45876917
0000a0 73 8a f8 bd b1 9f 59 be 22 95 c6 be 9e d6 8c be
       -0.12135782 -0.21252324 -0.38785654 -0.2750749
0000b0 b9 3f e0 be 60 75 bd be 2c 98 99 be 38 a4 a3 be
       -0.43798617 -0.37003613 -0.2999891 -0.31961226
0000c0 d5 45 ee bd 26 a2 d1 be e9 8c be be 56 5a c8 be
       -0.11634413 -0.40944022 -0.3721688 -0.3913142
0000d0 d6 e1 b9 be 2c 27 a5 be 58 1e bc be 43 81 a6 be
       -0.36305112 -0.32256448 -0.367419 -0.32520494
0000e0 fd 72 61 be 62 d8 d3 be 54 1b 26 bf 0e 88 f6 be
       -0.22016521 -0.41376024 -0.6488545 -0.48150676
0000f0 6b 73 f7 be b8 33 3d bf ba f8 5e bf 2d 97 6c bf
       -0.48330244 -0.7390704 -0.87098277 -0.92418176
000100 d3 2c 59 bf d3 02 e0 be 4c 3b 0e bf 8a 7e 39 bf
       -0.8483402 -0.43752155 -0.5555923 -0.7245871
000110 98 e5 22 bf 5c bb df be fe 0c 1c bf ff e0 35 bf
       -0.6363158 -0.4369763 -0.60957325 -0.7104644
000120 53 88 a7 be 04 81 db be 13 00 c6 be 26 46 d8 be
       -0.32721195 -0.4287187 -0.38671932 -0.4224102
000130 44 bd 6d be 9a f1 9d be 97 50 03 be 9b 90 98 be
       -0.2321673 -0.3084839 -0.12823711 -0.29797825
000140 cf 1f 78 be 61 62 a8 be 70 66 93 be 61 0b 18 bf
       -0.24230884 -0.32887557 -0.2878909 -0.5939236
000150 69 b0 0d bf ed 2c 52 bf aa c7 21 bf d6 af 27 bf
       -0.55347306 -0.820998 -0.6319529 -0.6550268
000160 b6 ce 23 bf e5 8c 19 bf 86 76 0b bf c1 03 d1 be
       -0.6398729 -0.59980613 -0.5447773 -0.40823177
000170 65 7d f4 be 66 16 a1 be a7 0a e1 be c4 88 c8 be
       -0.47751918 -0.314624 -0.4395344 -0.39166844
000180 8c d7 93 be c9 cc 1b bf 6b 77 33 bf 80 a6 2d bf
       -0.28875387 -0.6085935 -0.7010409 -0.67832184
000190 3b 36 22 bf fc 55 df be 6f 21 fe be c9 7d 07 bf
       -0.63364 -0.43620288 -0.49634883 -0.5292631
0001a0 6f d7 e7 be 5a fc dc be 0b 14 03 bf 0a b2 19 bf
       -0.4528155 -0.4316128 -0.5120246 -0.6003729
0001b0 f4 66 89 3d 71 84 ad bc ac 26 8c be 33 3e 09 be
       0.0670909 -0.021181317 -0.27373254 -0.13402633
0001c0 1e c4 5c be 59 76 ea bd 5a fd 38 3d 02 92 64 3e
       -0.21559188 -0.11448354 0.04516349 0.22321323
0001d0 14 73 30 3e bc 7b 5c 3e 2e 08 e2 3c e3 3a 99 be
       0.17231399 0.21531576 0.027591791 -0.2992774
0001e0 90 d1 ca be 95 c8 ac be 34 ca d2 ba ed e0 d1 be
       -0.39613008 -0.33746782 -0.001608199 -0.40991917
0001f0 2a 50 82 be a6 08 84 be 04 37 8a be 05 65 a4 be
       -0.25451785 -0.25787848 -0.269951 -0.32108322
000200 ae 60 40 be f1 19 7e be e6 89 06 bf 0b ef 0c bf
       -0.1878688 -0.24814583 -0.52554166 -0.5505225
000210 e3 18 f5 be e3 2d 2c bf c2 90 03 bf 5e f1 13 bf
       -0.4787055 -0.6725752 -0.5139276 -0.5779017
000220 59 0a 0d bf bb 85 99 be d5 b6 7b be 38 e2 f9 be
       -0.55093914 -0.2998484 -0.24581464 -0.48805404
000230 27 63 06 bf d2 14 93 be ba 2b ea be 82 ec 06 bf
       -0.52495044 -0.28726822 -0.45736486 -0.5270463
000240 16 3b e3 be 57 43 12 bf 57 b1 54 be a6 e3 07 bf
       -0.44381016 -0.57134 -0.20770775 -0.5308174
000250 46 59 8d be 57 b6 32 be 02 06 c9 be ac a8 13 bf
       -0.27607173 -0.1745237 -0.39262396 -0.5767925
000260 2f 7f 03 bf cc c8 d0 be 23 2c db be bf 8c 11 bf
       -0.5136594 -0.40778196 -0.4280711 -0.56855386
000270 4f e3 f4 be 34 95 1e bf 59 02 20 bf fe 71 18 bf
       -0.47829673 -0.61946416 -0.6250358 -0.5954894
000280 48 ac 1c bf 57 b6 0e bf 91 e1 81 3d 26 f5 a5 bd
       -0.6120038 -0.5574698 0.063418515 -0.08103399
000290 d4 0b 8c be 9c 27 1f be db bf b8 3e fa bf 93 3e
       -0.27352774 -0.15542454 0.36083874 0.28857404
0002a0 4d 92 dd 3e 21 1e d0 3d 94 45 23 3e 3d 77 5f 3e
       0.4327568 0.10161997 0.1594451 0.2182283
0002b0 88 7b a2 3e 32 fc a7 b8 09 69 09 3c 7f b6 60 be
       0.31734872 -8.0101556e-05 0.008386859 -0.21944617
0002c0 b4 fe 84 be 13 8b c0 3d 70 74 0b be a9 66 7f bd
       -0.25975573 0.09401526 -0.13618636 -0.062353764
0002d0 ab 37 cf be 04 2c 00 be fb fb 6f be 5c f9 95 bd
       -0.4047216 -0.1251679 -0.23435967 -0.07322952
0002e0 f9 f7 86 3e df b0 bc 3d d0 82 e9 3d 79 d7 50 3e
       0.26361063 0.09213423 0.11401904 0.20394696
0002f0 7c 16 bb 3d e3 b2 39 3e c8 cf d4 3b f6 c8 64 bd
       0.09135148 0.18134646 0.006494496 -0.055855714
000300 b8 dd b2 bd 36 38 02 be 9e 43 bf bd 67 46 db bd
       -0.08733696 -0.12716755 -0.09339069 -0.107067876
000310 ba d7 81 bd 46 a2 58 bd 41 fe 17 be c8 62 98 be
       -0.06339975 -0.05288913 -0.14843084 -0.29762864
000320 a9 22 09 bf 1c 7a 76 be 39 1f 65 be 0c b2 78 be
       -0.5356851 -0.24070019 -0.22375192 -0.2428667
000330 69 2c 18 be 23 0a 56 be 3c c5 78 be 8f 18 8a be
       -0.14860691 -0.20902304 -0.24293989 -0.26971862
000340 b7 7d db bd 11 0d a5 bc 41 a1 71 3d df ce b6 be
       -0.107173376 -0.020147832 0.058991674 -0.35704705
000350 c8 80 94 be b4 21 b3 bb e4 f1 51 be 47 2a 0d be
       -0.29004502 -0.005466664 -0.2050243 -0.13785659
000360 a9 9e 9c be 0a 28 5e bd 00 53 0c 3c 62 3c e2 bc
       -0.30589798 -0.054237403 0.008564711 -0.027616683
000370 b3 c0 9d bd ac d8 0d bd be 2c c8 3c b0 e0 92 be
       -0.0770277 -0.034630463 0.024435397 -0.28687048
000380 c7 2d 97 be 09 b8 6d be a4 a1 42 be 0e 35 63 be
       -0.29527113 -0.23214735 -0.19006974 -0.22188208
000390 91 85 9d be 58 40 e1 be 04 31 ac be bf 04 78 be
       -0.30765966 -0.43994403 -0.33631146 -0.2422056
0003a0 73 a7 ae be 85 10 9d be 73 71 b0 be ef b5 a0 be
       -0.3411213 -0.30676666 -0.34461555 -0.31388804
0003b0 09 28 e1 be 0e 3b ea be 28 77 19 be 30 48 d3 be
       -0.43975857 -0.4574818 -0.14986861 -0.41266012
0003c0 1c 90 97 be a0 37 a3 be 4e e0 7e be 1c b1 91 be
       -0.29602134 -0.31878376 -0.24890253 -0.28455436
0003d0 3f 5c a2 be eb 70 c2 be d1 6b da be 30 3e 42 bf
       -0.31711003 -0.37976775 -0.42660382 -0.7587614
0003e0 0c f4 37 bf 10 aa 0e bf 8d 9a 18 bf ad 39 34 bf
       -0.7185676 -0.55728245 -0.59610826 -0.70400506
0003f0 44 c7 d2 bc 0f e4 95 be 4d 2f 46 3c 57 f7 b4 bc
       -0.025729783 -0.29275557 0.012096238 -0.022090597

sequential/lstm_1/Read_2/ReadVariableOp1 f4 [256]
000000 28 13 9f bd 5f 1d d5 be 55 1c b5 be 53 9e b0 be
       -0.07767326 -0.4162397 -0.35373178 -0.34495792
000010 1a 20 7c be ed 88 93 be bc 87 82 3d 35 df 1a 3e
       -0.24621621 -0.28815404 0.063735455 0.15124209
000020 55 b4 aa be 9f d0 f4 be 86 08 c2 be f1 20 7d be
       -0.33340707 -0.47815415 -0.37897128 -0.24719597
000030 b7 f1 ce be ae 05 13 bf d8 43 be be bd 9a c4 be
       -0.4041879 -0.5743054 -0.37161136 -0.38399306
000040 5a fe 91 be 0f b2 ec be 76 d4 a8 be 3d 34 af be
       -0.28514367 -0.46229598 -0.32974595 -0.34219542
000050 4a fb eb bd 5d a3 08 bf e6 d0 be be ae b6 dc be
       -0.11522539 -0.5337427 -0.37268752 -0.43108124
000060 d9 40 bf be 9a 34 3f be 10 79 a6 be 6e e6 bf be
       -0.37354162 -0.1867241 -0.32514238 -0.3748049
000070 35 d2 9e be 73 40 f4 be 05 5c 77 be 55 08 a9 be
       -0.3101975 -0.4770542 -0.24156196 -0.3301417
000080 84 b9 f7 be 99 43 95 be 6a f0 d5 be ff 93 91 be
       -0.48383725 -0.29153135 -0.41784984 -0.28433225
000090 10 e7 74 be d1 c8 97 be 41 67 8b bc 04 6d b1 bd
       -0.23916268 -0.29645398 -0.017017009 -0.08663371
0000a0 64 8f d4 be 7f 3d 9e be cc 0e 66 bc a4 1c a4 be
       -0.41515648 -0.30906293 -0.014041614 -0.320531
0000b0 39 84 d6 be 64 40 ea be 71 5a 44 bd 68 75 a2 be
       -0.41897753 -0.4575225 -0.047937814 -0.317302
0000c0 47 bb 09 bf 92 c3 f2 be 13 7a 5a be 12 f3 d5 3d
       -0.5380139 -0.47414833 -0.2133563 0.104467526
0000d0 3b f0 92 be 61 ac b7 be d0 4b cd be e3 55 9b be
       -0.28698906 -0.35873702 -0.40096903 -0.30338964
0000e0 a5 0c 45 be 3c 21 75 be 83 de ac be 03 9d 9a be
       -0.19243105 -0.23938459 -0.33763513 -0.30197915
0000f0 9d 54 66 be 54 7d 89 be 42 f2 c6 be 7d 47 b2 be
       -0.22493215 -0.2685343 -0.38856703 -0.34820166
000100 d0 1a 15 3f 87 b7 34 3f a0 5d 3b 3f 92 72 3c 3f
       0.5824404 0.7059254 0.73189735 0.7361232
000110 64 fe 41 3f d1 e1 48 3f 7b f7 40 3f f0 bd 78 3f
       0.75778794 0.7846957 0.75377625 0.9716482
000120 0a 1a 5e 3f 99 3e 65 3f 51 54 65 3f 0e ab 36 3f
       0.8675848 0.8954864 0.8958178 0.7135476
000130 3a d3 60 3f 2b 62 51 3f 25 8e 6a 3f 76 61 47 3f
       0.87822306 0.8179042 0.91623145 0.7788309
000140 8f 2e 79 3f 36 92 61 3f 56 91 70 3f e9 5c 58 3f
       0.9733667 0.88113725 0.93971765 0.8451677
000150 9f cd 46 3f 92 21 3e 3f c5 b6 33 3f 4f 20 14 3f
       0.776575 0.74269974 0.7020076 0.578618
000160 07 25 27 3f 7a 8a 21 3f 5f b4 55 3f 25 ad 05 3f
       0.65290874 0.63101923 0.8347835 0.5221732
000170 b1 73 72 3f 30 bb 48 3f 5e f7 55 3f fa 74 43 3f
       0.9470778 0.78410625 0.8358058 0.7635037
000180 a3 da 53 3f d2 72 88 3f 09 67 40 3f bb a7 3e 3f
       0.8275549 1.066004 0.7515722 0.74474686
000190 6b 3d 4b 3f 40 9d 57 3f a6 b8 58 3f bc cc 46 3f
       0.7939059 0.8422432 0.8465675 0.7765615
0001a0 1e e0 68 3f ed 51 26 3f f0 00 1d 3f 91 d5 49 3f
       0.90966976 0.6496876 0.61329556 0.788415
0001b0 02 af 39 3f 24 ce 45 3f a8 1a 9e 3f f2 ef 45 3f
       0.72532666 0.7726767 1.2351885 0.7731925
0001c0 06 74 45 3f 16 95 26 3f 53 e8 41 3f 0c be 8f 3f
       0.7713016 0.6507124 0.75745124 1.1229873
0001d0 bb 15 44 3f 86 41 49 3f 3a 78 2c 3f a0 fa 67 3f
       0.7659566 0.78615606 0.6737095 0.906168
0001e0 b4 93 5b 3f 99 ec 14 3f f5 e5 56 3f 8f ce 31 3f
       0.8577225 0.5817352 0.83944637 0.6945581
0001f0 a8 d6 4e 3f c0 71 4d 3f 23 f3 3c 3f 9a aa 2b 3f
       0.8079629 0.80251694 0.738085 0.6705719
000200 02 20 df 3d 25 4e 1a 3d 28 6a db 3c d0 ed be 3b
       0.10894777 0.03767218 0.026784018 0.0058266893
000210 e4 bc 4b 3d 23 09 7a bd 8f 63 6d bd 3f c1 1b 3e
       0.049740687 -0.06104387 -0.057956275 0.15210436
000220 79 80 cc bc db e0 09 bd 21 15 f7 bc 30 14 f2 bc
       -0.024963604 -0.033661705 -0.030161442 -0.029550642
000230 2b 0a bf bb 48 ba 6a b9 4c a4 13 3d 95 f2 72 3b
       -0.0058300695 -0.00022385374 0.036045358 0.003707086
000240 a8 60 b2 3c 2d 41 77 bd ce 10 78 bc a6 ef 02 3d
       0.021774605 -0.06036489 -0.015140725 0.031966828
000250 83 db 74 bd 64 c4 25 3d d6 06 c9 bc ca 46 21 3c
       -0.059779655 0.040470496 -0.024539392 0.009843538
000260 b4 9f 31 bd af f7 d7 3c 4a f9 d6 bc 16 a6 c3 3d
       -0.043365195 0.026363222 -0.026241917 0.09553163
000270 7a 23 d0 bb ba 9c 20 bc a4 8d d5 3c a8 66 80 bc
       -0.0063518854 -0.0098029915 0.026068516 -0.01567395
000280 87 71 2d 3d 65 bb b1 bc 1c 49 ca bc 19 b3 35 3d
       0.042344596 -0.021695802 -0.024693064 0.044360254
000290 dd 5a 9f bd ef 56 07 bd 72 e7 db bd 87 a6 aa 3c
       -0.07781003 -0.03304189 -0.10737504 0.02083136
0002a0 57 6f 80 3d f4 ab 29 3c b6 bd 27 3d 74 ef 0c bd
       0.062712364 0.010355938 0.040952407 -0.034408048
0002b0 27 f0 59 3d 6a 43 3d 3d d2 26 98 3d db f2 05 3c
       0.053207543 0.04620687 0.074292794 0.008175577
0002c0 8f 64 a3 bc 1d 30 f7 bd c2 21 e7 3c 3d 2a 19 bd
       -0.019945411 -0.12069724 0.02821434 -0.037393797
0002d0 7a a0 a0 bc 2c c2 37 bd 21 37 3e bd 48 5c d3 bb
       -0.019607771 -0.04486291 -0.046439294 -0.0064502098
0002e0 b1 ad 55 bd f8 09 ef 3d c4 01 93 bd 85 48 4f 3d
       -0.0521676 0.11671823 -0.07178071 0.05060627
0002f0 3f b7 5b 3c d4 4b 2b bd ae f8 d3 3c 40 f0 c7 bd
       0.0134103885 -0.041820362 0.025875416 -0.09762621
000300 86 24 44 be d6 f8 d9 be bf dc b6 be 4a 2a b2 be
       -0.19154558 -0.4257266 -0.3571529 -0.3479789
000310 d4 36 a6 be f6 b8 9a be 38 6c ac 3b e1 4b 41 3d
       -0.32463706 -0.3021924 0.005261924 0.047191504
000320 be f2 c1 be 00 d2 02 bf d0 dd 01 bf 7b 56 84 be
       -0.3788051 -0.51101685 -0.50729084 -0.2584723
000330 4e 28 e4 be 1a b4 0e bf fc 5a d4 be 0d 8c c3 be
       -0.44562 -0.55743563 -0.41475666 -0.38192788
000340 73 de 91 be 13 60 eb be ff 52 a4 be 9e ce ba be
       -0.28490028 -0.45971736 -0.3209457 -0.3648576
000350 0b bb 78 be 96 0d 0a bf 55 65 cb be 25 ee dc be
       -0.24290101 -0.5392698 -0.39725748 -0.4315044
000360 5f 8a c6 be 9a 6a 83 be 63 e2 9e be 8f 9a d9 be
       -0.38777444 -0.25667268 -0.31032094 -0.4250073
000370 fb 43 9c be c0 c6 03 bf 0a 24 81 be 57 5d b9 be
       -0.30520615 -0.51475143 -0.25222808 -0.36204025
000380 8d 02 e5 be f0 ae fe be 52 3c d4 be 95 99 95 be
       -0.4472851 -0.49742842 -0.4145227 -0.29218736
000390 df e4 8e be 6d 8e a4 be 49 09 e8 bc 1e 3b c5 bd
       -0.2790899 -0.32139912 -0.02832474 -0.09630416
0003a0 b7 8e c8 be 7e 80 b5 be a6 b8 e1 bd 4f bd b7 be
       -0.39171383 -0.35449594 -0.11021547 -0.35886618
0003b0 23 7d d3 be 46 89 e5 be 0f 7b c0 3d dc 16 da be
       -0.4130641 -0.44831294 0.093984716 -0.42595565
0003c0 c1 a6 0a bf 7b 38 f8 be 09 a5 6c be d1 ff d9 bd
       -0.54160696 -0.4848059 -0.23109831 -0.10644496
0003d0 81 db 97 be 78 3d bd be 32 c1 c5 be 10 b1 f8 be
       -0.29659656 -0.3696096 -0.3862396 -0.48572588
0003e0 e7 fb 80 be 2f d9 98 be 44 2f c7 be 32 80 a5 be
       -0.25192186 -0.29853198 -0.38903248 -0.32324368
0003f0 8b 9d 83 be 02 8b 6f be 69 35 cf be a0 7a ff be
       -0.25706133 -0.23392871 -0.40470436 -0.49898243

while/MatMul_14 f4 [256, 64]
000000 78 12 a1 3d 2c 90 15 3d 2e 0c 81 be 36 b8 f7 be
       0.07864851 0.036514446 -0.25204605 -0.4838273
000010 3b 1b 81 3f 1d 44 8c 3e 0d 13 7f bf a4 c8 9c 3e
       1.0086435 0.27395716 -0.99638444 0.30621827
000020 7d 26 af 3e 3c 37 d8 3e 76 64 12 bd 84 ef 59 bf
       0.34209052 0.4222964 -0.03574034 -0.85131097
000030 5a 69 42 bf 71 8a b5 3e c3 9f 74 3d f3 c6 2a be
       -0.75942004 0.35457185 0.059722673 -0.16677456
000040 ac e3 43 3f d7 7b d8 be 16 54 87 be 4e 98 f3 be
       0.76519275 -0.42281982 -0.2643134 -0.47577137
000050 eb c6 40 3f d3 de 6f 3b cf 2b 88 3e 32 94 37 be
       0.75303525 0.003660132 0.26595923 -0.17927626
000060 0b 0a f7 3e 5d 34 0f bf 5f e6 6f 3e 79 5c df bc
       0.4824985 -0.55939275 0.23427723 -0.027265774
000070 87 17 9a be f7 b3 3a bd 9f d6 14 3f ea cf 1c bf
       -0.30096075 -0.045581784 0.58139986 -0.6125475
000080 25 de 01 be 49 31 d2 3d d5 6f 5b be 95 12 7e be
       -0.12682398 0.10263307 -0.2142938 -0.24811776
000090 11 c8 77 bf 7e b6 46 3d 6d f2 9a be 3a 8b 3c bf
       -0.9678965 0.04851388 -0.3026308 -0.7364994
0000a0 49 d3 2f 3e 17 fa e2 be 98 47 ad 3f 38 9e 4a bf
       0.17170443 -0.44331428 1.3537474 -0.7914767
0000b0 2d ec de 3d db 31 15 be 84 c9 d2 3e be a6 59 3e
       0.10884891 -0.145698 0.4116937 0.21255013
0000c0 fb f1 b0 be 36 5d 2f be 82 0e 11 bf 8f 19 3b bf
       -0.34559616 -0.17125401 -0.5666276 -0.73085874
0000d0 11 e4 79 3e 61 83 3d 3d 02 68 19 3d 59 6a 48 bf
       0.24403407 0.04626787 0.037452705 -0.78287274
0000e0 4c 64 81 bf ea e8 26 3f 0d ca 23 3d 81 e9 a1 bd
       -1.0108733 0.6519915 0.039987613 -0.079058655
0000f0 ed 6b f3 3e d5 b8 cd be c6 ba dc bd ac d4 dd bd
       0.47543278 -0.40180078 -0.10777812 -0.108315796
000100 a3 b0 be 3e 51 9c 04 be be fd 8b 3e d4 7e cf 3e
       0.37244138 -0.12950255 0.27342027 0.4052645
000110 06 58 03 be 42 79 12 be ac 3e 15 be a7 89 8d 3e
       -0.12826547 -0.14304069 -0.14574689 0.27644083
000120 5a 40 69 be e7 ac 46 3e 05 88 34 be 60 e9 9a 3d
       -0.22778454 0.19401895 -0.17630012 0.07564044
000130 df 15 67 be bb d8 78 3e 9d 3b 81 3e ac 62 b8 3d
       -0.22566937 0.24301426 0.25240794 0.09003195
000140 22 75 8c 3c e9 21 81 be 38 c5 e8 bb e6 0c 1b 3d
       0.017145697 -0.25221184 -0.0071035884 0.037854098
000150 9a aa 48 be cc 98 00 3f bd 0d e2 bc 98 b4 a0 3d
       -0.1959633 0.5023315 -0.027594442 0.078469455
000160 58 70 03 be 98 6b 54 3d 34 56 3c bc d1 ee 95 3e
       -0.12835824 0.051860422 -0.011495162 0.29283765
000170 1a 4a 2a 3d c8 92 97 be bb 5b 16 bd a2 ad b1 3d
       0.041574575 -0.29604173 -0.036708575 0.08675696
000180 42 26 8f 3e 9a 35 e3 3d 11 7b 17 3d 3a a3 11 3e
       0.27958876 0.11094208 0.0369826 0.14222422
000190 b0 be 26 3d 7d 4e d0 bd 76 6d e2 be b8 4c 37 be
       0.040709198 -0.101712205 -0.44224137 -0.1790036
0001a0 d7 f2 54 3d d6 09 89 3d 5b f1 46 3d b8 3d 37 bd
       0.051989403 0.06691329 0.04857002 -0.044736594
0001b0 cc 70 11 3e f5 67 a8 bd c2 e3 a3 3e a5 9a a1 3e
       0.14203185 -0.08222953 0.32009703 0.31563297
0001c0 17 82 99 bd 37 43 82 be 4e 15 41 be d8 30 bd be
       -0.07495516 -0.25441906 -0.18855783 -0.36951327
0001d0 ff ca ea bd e7 97 90 bd bf 04 7c be 0e 51 c6 bc
       -0.114645 -0.07060223 -0.24611185 -0.024208572
0001e0 e4 94 81 bc 6c 67 66 3e 0d e4 8f be 32 09 33 3e
       -0.015818067 0.2250039 -0.28103676 0.17483976
0001f0 ae e2 ec 3d 3a b1 21 3d 1f a9 08 3e d2 af b3 be
       0.11566673 0.039475657 0.13345765 -0.35095078
000200 89 83 32 3e 1f cd 83 3d 81 4e e1 3d a6 d2 22 3e
       0.17432989 0.06435608 0.110013016 0.15900669
000210 4b 4c a5 3e 7e 85 51 3c 78 b6 0f bf c7 e8 7c 3e
       0.3228477 0.012788175 -0.561378 0.24698173
000220 51 12 80 bd b8 52 20 3e 84 ca 85 bd d7 e9 91 be
       -0.062534936 0.15656555 -0.065327674 -0.28498718
000230 38 88 aa be 6d 6e 77 3e 8d 12 73 3e c2 3c 09 be
       -0.33307052 0.24163218 0.23737545 -0.13402084
000240 0e 43 64 3e 2d 8f 72 be 52 4d a8 3c 09 6a 34 be
       0.22291204 -0.2368743 0.020544682 -0.17618574
000250 35 2c d6 bc 19 ea 37 3d 97 4a 6f 3e bc 40 07 bd
       -0.026144126 0.044900987 0.23368298 -0.03302072
000260 db 2c f1 3d 68 d9 61 3e cd 26 3c 3d a5 6e b8 3d
       0.117761336 0.2205559 0.04593544 0.09005479
000270 ad f8 62 be e9 c4 11 be 8f 50 fe 3d 39 9e b3 bd
       -0.22165175 -0.14235272 0.12417709 -0.08770413
000280 5d e8 3c 3e 8a 55 b1 bd 00 5d 2b be 9b c9 ab 3d
       0.18448015 -0.086588934 -0.16734695 0.083880626
000290 cd 9b b8 be 06 9c 58 3d 3f d3 33 bf 23 37 fa be
       -0.36056367 0.05288317 -0.7024421 -0.4887019
0002a0 cf b4 83 3e 32 4b 32 be 42 5d 81 3e 6c d1 c1 be
       0.25723884 -0.17411497 0.25266463 -0.3785509
0002b0 9e 5c 25 3e 77 b3 8d bc 69 ca c8 3e ed fa 8e 3e
       0.16148612 -0.01729749 0.39216927 0.27925816
0002c0 25 41 a1 be 51 fe ce bd d3 a4 14 be dc 0c 01 bf
       -0.31495014 -0.10107101 -0.14516 -0.50410247
0002d0 2a ba 0e 3e 61 1c 2b 3c 18 23 4f be 3e df bd be
       0.13938203 0.010443778 -0.20228231 -0.37084383
0002e0 a0 6e d6 be 8f 0f 61 3e ee 5a 3e be 98 7b 21 3c
       -0.41881275 0.21978591 -0.18589374 0.009856127
0002f0 e6 b0 81 3e fe 41 b4 be 8b 5c 5d 3d 3a c2 1a be
       0.25330275 -0.35206598 0.054043334 -0.15113154
000300 d6 86 8b 3e a6 ca ae 3d f3 52 ab 3d d0 6e 4b 3d
       0.2725131 0.08534746 0.08365431 0.049666226
000310 de 01 a8 3e 36 35 fe bd ea 95 03 bf 88 d2 c8 3e
       0.32813925 -0.12412493 -0.51400626 0.39223123
000320 2d 0f f6 bd 3a 24 c4 3d 89 20 38 be ea 81 8f be
       -0.12014613 0.09577222 -0.17981161 -0.28028804
000330 bb fc b8 be c3 6c df 3d c0 ca e1 3c 34 89 00 3e
       -0.36130318 0.109094165 0.027562499 0.12552339
000340 d5 c9 01 3e 0a 14 b9 be 6c 5a 48 be e1 9f 46 be
       0.12674649 -0.361481 -0.19565743 -0.19396926
000350 bf bb c9 bd 17 c3 08 3e 9a 52 71 bd f4 47 b5 bd
       -0.09850263 0.13355671 -0.058916666 -0.088516146
000360 52 1a 9f 3d 9b f5 8b bc 1b 63 a5 bd 81 1a 2a 3e
       0.07768692 -0.017084887 -0.080755435 0.16611673
000370 ba df 42 be cd cb 39 be 9a da 33 3e 6f f9 67 be
       -0.19030657 -0.1814415 0.17563859 -0.22653745
000380 8c c4 f6 3d dd 3b 0b 3d 46 fe 74 bd 7a c7 a7 bd
       0.12049207 0.033992637 -0.059812807 -0.08192344
000390 c6 0c bf be b9 cc 2c 3e 8f 06 ee be 92 09 da be
       -0.37314433 0.1687497 -0.4648938 -0.42585427
0003a0 de 04 33 3e 00 f0 ee bd 5e 68 95 3e 8f 1c c5 be
       0.17482325 -0.1166687 0.29181188 -0.3849835
0003b0 88 f5 6a 3d ec d8 b1 3d be bb b9 3e 47 a8 6b 3e
       0.057363063 0.08683953 0.36276048 0.23013411
0003c0 cd b0 58 be c6 6c 4e be 17 85 66 be 88 14 6c bf
       -0.21161194 -0.20158681 -0.22511707 -0.9221883
0003d0 76 57 e2 3d e0 82 14 be 25 36 34 be 01 68 89 be
       0.11051838 -0.1450305 -0.1759878 -0.2683716
0003e0 29 2a be be 79 6e c0 3e 0f 6f e8 bd 9b 68 03 3e
       -0.3714154 0.37584284 -0.11349308 0.12832873
0003f0 93 66 98 3e 41 0c 3d be b6 6d a7 3c 1f c3 70 be
       0.29765758 -0.18461706 0.020438056 -0.23511933
